lcnn_weights.pth (torch, 137820 bytes, 22 tensors)

backbone.0.weight f4 [16, 1, 3, 3]
0	0xbebf3e60	-0.37352276
1	0x3e93d0ad	0.28870144
2	0x3e697036	0.22796711
3	0xbeb16d7d	-0.34653845
4	0xbdcf4df3	-0.101222895
5	0xbccab119	-0.02474265
6	0xbedb12d2	-0.42787796
7	0x3e54b95f	0.20773838
8	0x3eeb70b9	0.45984438
9	0xbe6a22f7	-0.228649
10	0x3e44180b	0.19149797
11	0x3bbfead9	0.0058568534
12	0xbd2fc98f	-0.04291683
13	0x3e61fcd6	0.22069106
14	0xbec64ffd	-0.387329
15	0xbeea0d57	-0.45713302
16	0x3f058da6	0.52169263
17	0xbe159e86	-0.14611253
18	0x3e78fb40	0.24314594
19	0x3c55af81	0.013042332
20	0x3ee5f054	0.44909918
21	0xbef14689	-0.47124127
22	0xbecc0439	-0.39846972
23	0xbeb6a696	-0.3567397
24	0xbeeb008e	-0.4589886
25	0x3df5cd4e	0.120020494
26	0xbd1e515d	-0.038651813
27	0xbdf85609	-0.12125785
28	0xbefc23ed	-0.4924616
29	0xbef0b578	-0.4701345
30	0x3e32089f	0.17386101
31	0x3f16deab	0.58933514
32	0x3e8cd24a	0.27504188
33	0xbdecd25b	-0.115635596
34	0xbd338ec6	-0.04383733
35	0x3e82b2f7	0.25527164
36	0x3e5c1b06	0.21494684
37	0xbf0d2a38	-0.55142546
38	0xbeb3ce16	-0.3511817
39	0x3efc9c6b	0.49338087
40	0x3d7ada71	0.06124348
41	0x3ea5b1bf	0.32362172
42	0x3e482530	0.19545436
43	0xbe307a10	-0.17234063
44	0x3d95455b	0.07288619
45	0xbdcc3821	-0.09971643
46	0x3e85f478	0.26163077
47	0x3eeb5f2b	0.45971045
48	0x3e6fa4b2	0.2340267
49	0xbbf7c9ad	-0.0075618834
50	0xbdd8b5f3	-0.10581579
51	0x3e3db567	0.18526231
52	0x3da57d9a	0.08080597
53	0xbf360f6b	-0.71117276
54	0x3d859a7a	0.06523605
55	0x3d635fb7	0.055511203
56	0xbec3f618	-0.38273692
57	0x3ec95a71	0.39326814
58	0x3eda5706	0.4264452
59	0x3ddd81dc	0.10815784
60	0xbef31c32	-0.4748245
61	0x3d9f1328	0.07767326
62	0xbe98357b	-0.29728302
63	0x3d890492	0.06690325
64	0xbeb08ad2	-0.34480911
65	0x3ea14dc9	0.31504658
66	0x3e5164c3	0.20448594
67	0xbf18a770	-0.5963049
68	0x3f14779e	0.5799502
69	0xbe922026	-0.28540152
70	0x3e467df9	0.19383992
71	0x3e1787aa	0.14797845
72	0xbe6d8f4e	-0.23199198
73	0x3ed42287	0.41432592
74	0x3e101311	0.14069773
75	0x3da772d6	0.081762
76	0x3eaec338	0.34133315
77	0x3e225721	0.1585355
78	0xbeb98c9a	-0.36240083
79	0x3e5b8aea	0.2143971
80	0xbf1acf18	-0.6047225
81	0xbe310c2f	-0.17289804
82	0xbe977cfc	-0.29587543
83	0xbe9d3764	-0.30706322
84	0x3ef62e24	0.48082078
85	0x3e06ac1a	0.13151589
86	0xbdfea27c	-0.12433335
87	0x3c18d92a	0.00932912
88	0xbeb0ab3e	-0.34505647
89	0x3eb80b38	0.3594606
90	0xbde88b79	-0.11354727
91	0x3dc3eee7	0.095670514
92	0xbe676f20	-0.22600985
93	0x3ef496a3	0.47771177
94	0x3e707f39	0.23486032
95	0x3e9ac53e	0.3022861
96	0xbdc788eb	-0.09742912
97	0xbecd56d3	-0.40105304
98	0xbf038b02	-0.51383984
99	0xbf0b1439	-0.5432773
100	0x3e21636e	0.15760586
101	0xbec48c06	-0.3838808
102	0x3efda428	0.49539304
103	0xbeb854f0	-0.36002302
104	0x3e3d61eb	0.18494384
105	0x3de5175f	0.11186098
106	0xbe345710	-0.17611337
107	0x3e2f9a68	0.17148745
108	0xbcb909d6	-0.022587698
109	0xbeabf943	-0.3358861
110	0x3e5c9ae4	0.21543461
111	0xbe962373	-0.2932392
112	0xbf38f769	-0.7225252
113	0x3da630b9	0.08114762
114	0x3d5146d7	0.05109295
115	0xbedb043d	-0.4277667
116	0x3e9f7370	0.3114276
117	0xbe61c878	-0.22049129
118	0x3e72ee89	0.23723806
119	0x3eb5868e	0.3545422
120	0x3d847d26	0.06469183
121	0x3ee40f30	0.44542837
122	0x3edcc76a	0.4312089
123	0x3e309620	0.17244768
124	0xbd1f2c5f	-0.038860675
125	0xbee13fb8	-0.43993926
126	0xbe7b7bed	-0.24558993
127	0x3eabbd95	0.33543077
128	0x3eedadd3	0.4642168
129	0x3e8db052	0.27673584
130	0x3deb0cad	0.11477027
131	0xbef9cb75	-0.48788038
132	0x3f13c870	0.5772772
133	0xbc04a59d	-0.008096126
134	0x3e91a0a8	0.28442883
135	0x3eadb2dd	0.33925524
136	0x3e42dd73	0.19029789
137	0xbef857eb	-0.48504576
138	0xbd4a0683	-0.049322616
139	0x3e0c404c	0.13696402
140	0xbd43843b	-0.047733527
141	0xbead71ba	-0.3387583
142	0xbe7e1f09	-0.24816526
143	0x3f000f08	0.50022936

backbone.0.bias f4 [16]
0	0x3e3841af	0.17993806
1	0x3e946158	0.28980517
2	0x3e42b148	0.1901294
3	0x3e9c2697	0.30498192
4	0x3dc83ceb	0.09777244
5	0x3e925380	0.2857933
6	0xbebcc913	-0.36872157
7	0x3d8a8f20	0.0676558
8	0xbe8ce798	-0.27520442
9	0x3e7b3fb9	0.24536027
10	0xbe321f2e	-0.17394707
11	0xbea53d19	-0.32273176
12	0xbe515781	-0.20443536
13	0xbe0028ce	-0.12515566
14	0xbe814c03	-0.25253305
15	0x3eb93c78	0.36178946

backbone.1.weight f4 [16]
0	0x3f6b45c6	0.9190334
1	0x3f4d5240	0.8020363
2	0x3f49ddc0	0.7885399
3	0x3fbc576e	1.4714181
4	0x3f817ec4	1.0116811
5	0x3f5f0007	0.87109417
6	0x3f98a53c	1.1925426
7	0x3f462d3a	0.7741276
8	0x3f9b8a43	1.2151569
9	0x3f830b84	1.0237889
10	0x3fa8ec79	1.3197166
11	0x3f73d73a	0.95250285
12	0x3f3e051a	0.74226534
13	0x3efc1c8f	0.49240538
14	0x3f49aa3d	0.7877539
15	0x3f567fc4	0.83788705

backbone.1.bias f4 [16]
0	0xbe6baa7f	-0.23014258
1	0xbea2a43a	-0.3176592
2	0xbd9ba103	-0.0759907
3	0x3ec1a2ab	0.37819418
4	0xbf1c496b	-0.61049527
5	0xbf085fb6	-0.53271043
6	0x3e9cdae1	0.3063574
7	0xbee65c9b	-0.44992527
8	0xbf42545b	-0.75909966
9	0xbefc0a31	-0.49226525
10	0x3ccb913a	0.024849523
11	0x3eb7b7f4	0.35882533
12	0xbe58cb6d	-0.21171351
13	0xbf1de581	-0.6167832
14	0xbf831547	-1.0240868
15	0xbf0b9717	-0.5452742

backbone.1.running_mean f4 [16]
0	0x40a958e8	5.292103
1	0x41bd1848	23.636856
2	0x427778fa	61.86814
3	0xc085cd0f	-4.1812816
4	0xc1a3b143	-20.461554
5	0xc1adb09c	-21.711235
6	0x3f157a68	0.583899
7	0xc1aa1e1a	-21.264698
8	0xc1307045	-11.02741
9	0x41877867	16.93379
10	0x41597860	13.591888
11	0x41b23a8b	22.278585
12	0x429e6640	79.19971
13	0xc289b9ca	-68.86287
14	0xc2b242f5	-89.130775
15	0xbf7fca71	-0.99918276

backbone.1.running_var f4 [16]
0	0x42a5d966	82.92461
1	0x424edb0c	51.713913
2	0x43994a39	306.57986
3	0x42ce559f	103.16723
4	0x42b5faa7	90.989555
5	0x42c98aef	100.771355
6	0x42870225	67.50419
7	0x4283c3bc	65.88229
8	0x42b508cd	90.51719
9	0x4296109a	75.032425
10	0x42fc68ac	126.20444
11	0x42acfa14	86.488434
12	0x43e0485b	448.56528
13	0x43a94942	338.57233
14	0x4412ba9e	586.9159
15	0x40be4089	5.945378

backbone.4.weight f4 [32, 16, 3, 3]
0	0x3dbf3c3d	0.093376614
1	0x3deb0088	0.11474711
2	0xbeae6d9d	-0.34068003
3	0xbd2b1ee3	-0.041777503
4	0x3e227711	0.15865733
5	0x3ecb22ed	0.39675084
6	0x3e3c8275	0.1840914
7	0xb807ce04	-3.2378375e-05
8	0x3ec6ace2	0.38803774
9	0xbe7b095b	-0.24515288
10	0x3e57150a	0.2100412
11	0xbec6e0ca	-0.38843375
12	0xbc8631ab	-0.016381105
13	0xbea0fc8b	-0.31442675
14	0xbed53c6d	-0.41647664
15	0xbf33f551	-0.702962
16	0xbe1013bd	-0.1407003
17	0xbea44b94	-0.32088912
18	0x3c2dca8e	0.010607375
19	0xbef97cc1	-0.48727992
20	0xbf1c5a13	-0.6107494
21	0x3e86c0ee	0.2631907
22	0x3e4e9eaa	0.20177713
23	0x3ea1a61f	0.31572053
24	0xbead32a9	-0.33827713
25	0xbf1014be	-0.5628165
26	0xbe8e562a	-0.27800113
27	0x3e7225c7	0.23647223
28	0x3e9a848b	0.30179247
29	0x3e2afdc1	0.16698362
30	0x3ec9662d	0.39335766
31	0xbe28a4ec	-0.16469163
32	0xbd72eb95	-0.0593067
33	0xbdd1a4d7	-0.10236519
34	0xbe09703f	-0.13421725
35	0xbe2b7471	-0.16743638
36	0xbdbf3fc3	-0.093383335
37	0xbd18a1e1	-0.037263755
38	0x3e0576d8	0.13033617
39	0x3ec28606	0.37992877
40	0xbe87bcd5	-0.26511255
41	0x3d96c64f	0.07362043
42	0xbc0f1c9b	-0.008734847
43	0xbe941e8e	-0.2892956
44	0x3df6ffbd	0.12060497
45	0x3e627633	0.22115402
46	0x3e6ada49	0.22934832
47	0x3e9e25c1	0.3088818
48	0x3d089f1e	0.03335487
49	0x3d5aa062	0.05337561
50	0xbe250600	-0.1611557
51	0xbea1d53c	-0.31607997
52	0xbc8687b6	-0.016422134
53	0xbe91102d	-0.28332654
54	0xbd1a69fb	-0.037698727
55	0x3e228b6c	0.15873498
56	0x3e225ee8	0.15856516
57	0xbed411d1	-0.41419843
58	0xbee12767	-0.43975374
59	0x3e29f183	0.16596036
60	0xbdd8871f	-0.10572647
61	0x3e33f8b5	0.17575343
62	0x3eb277a3	0.348569
63	0xbdc1d563	-0.094645284
64	0xbd0e7f6e	-0.034789495
65	0x3dc6d950	0.09709418
66	0xbdead4e9	-0.11466391
67	0x3dd1972b	0.10233911
68	0x3ca1bc41	0.019743087
69	0xbdd655a9	-0.10465557
70	0xbdff5ac3	-0.12468483
71	0xbe2748cc	-0.16336364
72	0xbe56bcf6	-0.2097052
73	0xbf0e0110	-0.5547037
74	0xbef451f7	-0.47718784
75	0x3e0ccedd	0.13750787
76	0xbd923af7	-0.07140153
77	0xbdce9ced	-0.10088525
78	0x3e0c7259	0.13715495
79	0x3df4db33	0.119558714
80	0xbd248486	-0.040165447
81	0x3e1d6024	0.15368706
82	0xbefa6f56	-0.48913068
83	0x3d3312ca	0.04371909
84	0x3f006c23	0.50165004
85	0x3e5e57d7	0.21713196
86	0xbcf5159b	-0.029917529
87	0x3e959349	0.29213932
88	0x3d8fee70	0.070279
89	0x3e064367	0.1311165
90	0x3dbb5dbc	0.09148738
91	0x3ed9db45	0.42550102
92	0xbe0bb487	-0.13643084
93	0xbf4d8995	-0.8028806
94	0xbd12f3d9	-0.035877082
95	0xbf0d8cb3	-0.55292815
96	0x3dcf4249	0.10120065
97	0x3d4a61f4	0.04940982
98	0xbdbb4d51	-0.09145606
99	0x3e20a96d	0.15689631
100	0x3e39962b	0.18123691
101	0x3e94a484	0.29031765
102	0x3ed32ae7	0.4124367
103	0x3ea7577d	0.32683936
104	0x3e0ed42d	0.13948126
105	0x3ca9b107	0.020714296
106	0x3e1db363	0.15400462
107	0x3e58dc10	0.21177697
108	0x3d53fbe7	0.051753905
109	0x3ede1915	0.4337851
110	0x3e9d9eef	0.3078532
111	0xbf446497	-0.7671599
112	0xbf06d985	-0.5267566
113	0xbe204771	-0.15652253
114	0xbe28e45a	-0.16493359
115	0xbe0c46f1	-0.13698937
116	0x3c4de624	0.012567077
117	0x3d6ede1d	0.058317292
118	0x3e09a6d4	0.13442546
119	0x3b6102c8	0.0034333933
120	0x3e0f0dd6	0.13970122
121	0x3e00c328	0.12574446
122	0xbe9f17c8	-0.3107283
123	0xbe13b84b	-0.14425771
124	0x3b83c01d	0.0040207044
125	0xbe8a52e2	-0.2701636
126	0x3f0259d6	0.5091833
127	0x3e9ef192	0.3104368
128	0x3eb7e0f5	0.35913816
129	0x3f3fe94a	0.74965346
130	0x3f0d0b10	0.55095005
131	0x3e95c105	0.29248825
132	0x3d7afa7f	0.061274048
133	0x3ebdb0f0	0.37049055
134	0x3e0703f3	0.131851
135	0xbc2c6dbd	-0.0105242105
136	0x3ec1b37e	0.37832254
137	0xbe220958	-0.15823877
138	0x3e2fc7c9	0.17166056
139	0xbc8d6479	-0.017259823
140	0x3e8a4242	0.27003676
141	0xbe3df821	-0.18551685
142	0xbd03d92b	-0.03218953
143	0x3d82d20b	0.06387719
144	0xbd994eb8	-0.074857175
145	0x3d35aa39	0.04435179
146	0x3eb282e9	0.34865502
147	0xbdf655f1	-0.12028111
148	0xbd54cc35	-0.05195256
149	0x3e89075f	0.26763436
150	0xbd0122ca	-0.031527318
151	0xbe7f85e8	-0.24953425
152	0x3e032270	0.12806106
153	0xbd2ccd1f	-0.042187806
154	0xbe551851	-0.20810057
155	0x3e2a9783	0.1665936
156	0x3e96b554	0.29435217
157	0x3e6e50e9	0.23273052
158	0xbcbbead3	-0.022939121
159	0x3d9a5bd6	0.075370476
160	0x3c034582	0.008012177
161	0xbea44d46	-0.32090205
162	0x3e070317	0.13184772
163	0x3cb916a2	0.0225938
164	0xbdb3023a	-0.08740659
165	0x3e340842	0.17581275
166	0xbd37d5fa	-0.0448818
167	0xbe3da19e	-0.18518683
168	0x3e885e24	0.26634324
169	0x3d361174	0.04445024
170	0xbe24d897	-0.16098247
171	0xbdcf8eeb	-0.10134681
172	0xbde2a095	-0.11065785
173	0xbc3b1f5f	-0.011421054
174	0xbec7fdcf	-0.39060828
175	0xbecfaf06	-0.4056322
176	0x3e6d23f0	0.2315824
177	0x3d074872	0.033028074
178	0xbe134617	-0.14382206
179	0xba832d52	-0.0010008013
180	0xbe4a707e	-0.19769475
181	0xbc93dca4	-0.018049546
182	0x3ebff7d9	0.3749378
183	0xbea6c0ac	-0.32568872
184	0xbe18bce1	-0.14915802
185	0x3ee86e37	0.45396587
186	0xbe888a4b	-0.2666801
187	0xbe89fe60	-0.26951885
188	0xbcbc75be	-0.023005363
189	0xbd74b2f2	-0.059740968
190	0xbce0d106	-0.02744342
191	0x3d614db5	0.055005748
192	0xbe9119d8	-0.2834003
193	0xbf170e37	-0.59006065
194	0xbead5cab	-0.33859763
195	0xbe6adc25	-0.22935541
196	0xbefcf514	-0.4940573
197	0x3dad22e1	0.08453918
198	0xbe6062a0	-0.21912622
199	0x3e674ccb	0.22587888
200	0x3e0f05b7	0.13967024
201	0x3c818ed8	0.015815184
202	0xbe3cf7a9	-0.1845385
203	0xbe1e5f79	-0.15466107
204	0x3e04bc5e	0.12962481
205	0xbe21ce03	-0.15801243
206	0xbe0e0c4e	-0.13871881
207	0xbe9ffd10	-0.3124776
208	0x3e6c7383	0.23090939
209	0x3e2386c6	0.1596938
210	0xbeab1aa7	-0.33418772
211	0xbd386f86	-0.045028232
212	0x3e192db9	0.14958848
213	0x3d94c913	0.07264914
214	0xbc98d020	-0.01865393
215	0x3e9516fd	0.291191
216	0xbd5f35d7	-0.054494705
217	0x3ebb1516	0.36539525
218	0x3f5df8ac	0.8670757
219	0xbe7f4cf5	-0.249317
220	0xbe4d68d6	-0.20059523
221	0x3e21a1af	0.15784334
222	0xbd8728a6	-0.0659955
223	0x3e27ee59	0.16399516
224	0x3ed306c9	0.41216114
225	0xbf549228	-0.83035517
226	0xbe254754	-0.16140491
227	0x3d156628	0.036474377
228	0xbf102c22	-0.5631734
229	0xbe3d60f8	-0.18494022
230	0xbd4c56db	-0.04988752
231	0xbe3c7577	-0.18404184
232	0x3cb59865	0.022167394
233	0x3e9e1057	0.3087184
234	0xbe95765d	-0.29191867
235	0xbe3097d8	-0.17245424
236	0xbe442956	-0.19156393
237	0xbead3501	-0.338295
238	0xbf0307b3	-0.51183623
239	0xbe195de5	-0.14977224
240	0xbe675f03	-0.22594838
241	0xbed46e1a	-0.4149025
242	0xbe3bf225	-0.1835409
243	0x3cf90fe0	0.030403078
244	0x3e096951	0.13419081
245	0xbd87c014	-0.06628433
246	0x3e183b9d	0.1486649
247	0x3c929342	0.017892484
248	0xbdaf8a2a	-0.085712746
249	0xbcd8d5a6	-0.026469063
250	0x3e62b1e5	0.22138174
251	0x3d286b2e	0.04111784
252	0x3e26751d	0.16255613
253	0x3e572eef	0.21013997
254	0xbe464fea	-0.19366422
255	0x3e49d94d	0.197118

backbone.4.bias f4 [32]
0	0xbe1b9ff1	-0.15197732
1	0xbe113f32	-0.14184263
2	0x3ecdaac5	0.4016935
3	0xbd97befe	-0.07409476
4	0x3e22b610	0.15889764
5	0xbd6cb2c6	-0.05778768
6	0xbc1466ba	-0.009057695
7	0xb900778e	-0.00012251569
8	0xbcc9e965	-0.024647424
9	0xbe0882e5	-0.13331182
10	0x3cc0d94d	0.023541117
11	0x3bcf6169	0.006328751
12	0x3d5eb7ab	0.05437438
13	0xbe29dae1	-0.16587402
14	0x3e3a59ed	0.18198366
15	0xbd109723	-0.035300385
16	0x3e73e36b	0.23817222
17	0x3e60fe92	0.21972111
18	0xbe34ba7c	-0.17649263
19	0xbd9773ee	-0.07395159
20	0xbe2499a5	-0.16074236
21	0xbb1e98f8	-0.0024200063
22	0xbbead9b9	-0.007167068
23	0x3e879996	0.26484364
24	0x3dcce379	0.100043245
25	0x3d857c8b	0.06517895
26	0x3d9190b2	0.071076766
27	0xbd9a4218	-0.07532138
28	0x3aee93f1	0.0018202049
29	0x3f11184c	0.566777
30	0x3bcc2c9c	0.006230904
31	0xbcd5eae8	-0.026112989

backbone.5.weight f4 [32]
0	0x3f332ec0	0.6999321
1	0x3f262314	0.64897275
2	0x3f5265f9	0.8218685
3	0x3f0c5f17	0.54832596
4	0x3f80f09f	1.0073432
5	0x3f8ab81c	1.0837436
6	0x3f85d907	1.0456856
7	0x3f48f4da	0.78498614
8	0x3f7b38d9	0.9813362
9	0x3fa78127	1.3086289
10	0x3f1195e9	0.5686937
11	0x3f22bf75	0.6357339
12	0x3fb552f6	1.4165943
13	0x3fa00803	1.2502445
14	0x3f45b240	0.7722511
15	0x3f79037c	0.9727094
16	0x3f185611	0.59506327
17	0x3f6c01eb	0.92190427
18	0x3f78109a	0.9690033
19	0x3f3b826c	0.73245883
20	0x3fab35c0	1.3375778
21	0x3f82f0a8	1.0229692
22	0x3f5e7a2c	0.8690517
23	0x3f864f5c	1.0492969
24	0x3f8d77d9	1.10522
25	0x3f21cdb1	0.63204485
26	0x3f680b84	0.9064257
27	0x3f695fdd	0.911619
28	0x3f118f5b	0.5685937
29	0x3f9784a5	1.1837355
30	0x3f928cb9	1.1449195
31	0x3f92f120	1.1479836

backbone.5.bias f4 [32]
0	0xbf82cea5	-1.0219313
1	0xbf0721f7	-0.527862
2	0xbebe5289	-0.37172344
3	0xbefe3a59	-0.4965389
4	0xbe5bb08b	-0.21454065
5	0xbeb32cee	-0.34995216
6	0xbed706f3	-0.4199749
7	0xbf8cbc3c	-1.0994945
8	0xbf4f186a	-0.8089663
9	0xbf7e5128	-0.99342585
10	0xbf1c5a74	-0.6107552
11	0xbec8d76a	-0.39226848
12	0xbf36716a	-0.71266806
13	0xbf15bdd6	-0.5849279
14	0xbe68affc	-0.22723383
15	0xbe5e126c	-0.21686715
16	0xbf47a3cc	-0.7798431
17	0xbe67109f	-0.22564934
18	0xbe96670f	-0.29375502
19	0xbf098a35	-0.5372651
20	0xbf52c39a	-0.82329714
21	0xbf07b3fc	-0.5300901
22	0xbed292b1	-0.41127542
23	0xbef86713	-0.4851614
24	0xbee7a9b2	-0.45246655
25	0xbf1b2d91	-0.60616404
26	0xbea581e3	-0.32325658
27	0xbf077923	-0.52919215
28	0xbfaeece5	-1.3666044
29	0xbe84f397	-0.25967094
30	0xbf01fa11	-0.50772196
31	0xbec3ca3a	-0.38240224

backbone.5.running_mean f4 [32]
0	0x3f2a8d5a	0.66621935
1	0xc0015115	-2.0205739
2	0xc04fa2be	-3.244308
3	0xbfdbc1df	-1.716854
4	0xc0bed6df	-5.9637294
5	0xc051b0f2	-3.276425
6	0xbf246099	-0.64209896
7	0x400390e2	2.055718
8	0xbf551d28	-0.83247614
9	0xc00b86db	-2.180106
10	0xbf97a799	-1.1848022
11	0xc02c8f40	-2.6962433
12	0xbf7bc7d4	-0.9835179
13	0xc01e659b	-2.4749515
14	0xbffdc067	-1.9824342
15	0xc06f8c2b	-3.7429302
16	0xc0149b8b	-2.3219936
17	0xc03d74c9	-2.960253
18	0xc0832232	-4.097924
19	0xc0360989	-2.844332
20	0xc020ebe4	-2.5143976
21	0xbfcdd58d	-1.6080796
22	0xbfe1dd13	-1.7645591
23	0xbff2f445	-1.8980795
24	0xbfb94800	-1.4475098
25	0xc0020b6b	-2.031947
26	0xc0b09774	-5.518488
27	0xc05ebe7d	-3.4803765
28	0x3c038b33	0.008028793
29	0xbff93820	-1.9470253
30	0xc043cbcf	-3.0593145
31	0xc0756e86	-3.8348708

backbone.5.running_var f4 [32]
0	0x40003565	2.003259
1	0x409f76dc	4.983259
2	0x41031f9e	8.195219
3	0x40ceaa53	6.4582915
4	0x410c3b23	8.764438
5	0x41017ab7	8.09246
6	0x40e6138b	7.1898856
7	0x408630e5	4.1934686
8	0x40adb9e2	5.428941
9	0x41068d5d	8.4095125
10	0x404d0cd8	3.203909
11	0x409e28cd	4.9424806
12	0x4126fa2d	10.436078
13	0x4118a855	9.541097
14	0x40eb13cd	7.346167
15	0x413e705c	11.9024315
16	0x40352865	2.8305905
17	0x41006ccf	8.026565
18	0x4126f6b7	10.435233
19	0x411f2009	9.945321
20	0x41110dd5	9.065877
21	0x4144a690	12.290665
22	0x41036c70	8.213974
23	0x4117ddef	9.491683
24	0x410a291f	8.635039
25	0x407a87fb	3.9145496
26	0x40bd6263	5.91826
27	0x411eece2	9.932833
28	0x401324f9	2.2991316
29	0x41353a7e	11.32678
30	0x411be24d	9.742749
31	0x4121420c	10.078625

backbone.8.weight f4 [64, 32, 3, 3]
0	0x3ec74454	0.38919318
1	0xbe00ecdc	-0.12590355
2	0xbe63d4e7	-0.22249185
3	0xbd30a5e4	-0.043126956
4	0xbe81f5d5	-0.25382867
5	0xbde87770	-0.11350906
6	0xbdf9a66a	-0.12189944
7	0xbe347425	-0.1762243
8	0xbdbbd054	-0.09170595
9	0xbd270772	-0.040778585
10	0x3dc68802	0.0969391
11	0xbd978d56	-0.074000046
12	0x3e526ecb	0.20550077
13	0x3e9377c1	0.28802302
14	0x3d9e2bb8	0.077231824
15	0x3e408edb	0.18804495
16	0x3ea84eca	0.3287261
17	0x3d27f0b4	0.041001037
18	0x3e949477	0.2901952
19	0x3d9af70a	0.0756665
20	0xbbc9cc67	-0.0061584
21	0x3e6d8224	0.23194176
22	0x3e4254c7	0.18977652
23	0x3d74d816	0.059776388
24	0x3e29abbb	0.16569416
25	0x3d97198f	0.07377922
26	0xbe2ee24b	-0.17078511
27	0x3d70e246	0.05880954
28	0x3e9ad400	0.30239868
29	0x3e01d7df	0.12680005
30	0xbc93458d	-0.0179775
31	0x3d668a77	0.056284394
32	0xbd9bf11f	-0.076143496
33	0x3cc2fdab	0.023802599
34	0xbca8a410	-0.020586044
35	0xbe317c8f	-0.17332672
36	0x3ee05711	0.43816426
37	0x3e248d6b	0.16069572
38	0xbc03faff	-0.008055448
39	0x3e8ca735	0.2747132
40	0x3d9fa135	0.0779442
41	0x3e2d3c4b	0.16917531
42	0x3e1af3ca	0.1513206
43	0xbd331952	-0.04372532
44	0x3d91e751	0.07124198
45	0x3e93c8eb	0.28864226
46	0x3ed2d812	0.41180474
47	0x3f0a1d21	0.539507
48	0x3d1043de	0.035220973
49	0x3da5983d	0.08085678
50	0x3df97b22	0.12181689
51	0xbd2a833b	-0.041629057
52	0xbdb58a33	-0.0886425
53	0xbe89254d	-0.2678627
54	0x3d3c775e	0.046012275
55	0x3ec30e67	0.38096926
56	0x3f36b688	0.7137227
57	0xbcbcfa7a	-0.023068655
58	0x3e3a14b2	0.18171957
59	0x3e988aa6	0.2979328
60	0x3b726878	0.0036988538
61	0x3dda701a	0.10665913
62	0xbe5a78f8	-0.21335208
63	0xbcd71c1d	-0.026258523
64	0x3de44ca2	0.11147429
65	0x3e698fc1	0.22808744
66	0xbdc10080	-0.094239235
67	0xbc2487b0	-0.010042116
68	0x3dee797c	0.11644265
69	0x3d8574d8	0.06516427
70	0x3e035f11	0.12829234
71	0x3e2a698c	0.16641825
72	0x3e10ea95	0.14151986
73	0x3e864d35	0.2623078
74	0x3e2f65d4	0.17128688
75	0x3df29ed2	0.11846699
76	0x3e9acb49	0.3023322
77	0x3ece52ef	0.40297648
78	0x3d626ee5	0.05528154
79	0x3e5f01bd	0.21778007
80	0x3eacd67b	0.33757386
81	0xbe3761ea	-0.17908445
82	0x3f402f66	0.75072324
83	0x3f7835fd	0.9695738
84	0xbee7d3c0	-0.4527874
85	0xbd9a64e7	-0.07538777
86	0x3d73a688	0.05948499
87	0xbeb265ec	-0.34843385
88	0x3d41b72a	0.04729382
89	0xbd035323	-0.032061707
90	0xbdc86c9f	-0.09786343
91	0xbdd3a9eb	-0.10335144
92	0x3da21e38	0.0791592
93	0xbd0ef0b9	-0.03489754
94	0xbda68ff5	-0.081329264
95	0xbc688e6d	-0.014194113
96	0xbd4a2553	-0.049352
97	0xbdcd209d	-0.10015986
98	0xbe340e07	-0.17583476
99	0xbdbf81cf	-0.09350931
100	0x3e874c75	0.2642552
101	0x3d29eaca	0.041483678
102	0xbe550a1b	-0.20804636
103	0x3e02bd6a	0.12767568
104	0x3e9bb8e5	0.304145
105	0xbd9dc102	-0.07702829
106	0xbe213110	-0.15741372
107	0x3ea65541	0.3248692
108	0x3e5f95c2	0.21834472
109	0xbde67312	-0.11252417
110	0xbefa59e9	-0.4889672
111	0x3e5b028f	0.21387695
112	0x3e0d1103	0.1377602
113	0xbe863f92	-0.26220375
114	0x3f1905ea	0.5977465
115	0x3f32ec9c	0.6989229
116	0x3f13675a	0.57579577
117	0x3eecdf83	0.46264276
118	0x3ddda56e	0.10822569
119	0x3dbb9e58	0.09161061
120	0x3eb555b8	0.3541696
121	0x3e5f6986	0.21817598
122	0x3e3e51ea	0.18585935
123	0x3f4913e8	0.78546
124	0x3f0c3e55	0.5478261
125	0x3f0ef610	0.5584421
126	0xbe380cc7	-0.17973624
127	0xbeb287e8	-0.34869313
128	0xbe87dfa6	-0.26537818
129	0x3da8ed36	0.082483694
130	0xbdfe2c9d	-0.12410853
131	0x3c7bb70a	0.015363464
132	0x3d0fe01b	0.035125833
133	0xbe050bd8	-0.129928
134	0x3c0b8ede	0.008517949
135	0xbea0dc8a	-0.31418258
136	0xbe79ba65	-0.2438751
137	0xbeaa4e5b	-0.33262905
138	0xbdb9f2cc	-0.09079513
139	0xbc57f6a9	-0.013181367
140	0xbd5c28f6	-0.05375
141	0x3e492869	0.19644322
142	0xbc297856	-0.010343632
143	0xbe056bb5	-0.13029368
144	0x3ebe2300	0.37136078
145	0x3e0ecd6b	0.13945548
146	0x3ef728da	0.48273355
147	0x3de34af8	0.110982835
148	0x3e0ab3e2	0.13545182
149	0x3d47f6f5	0.0488195
150	0x3d365071	0.04451031
151	0x3dbee463	0.09320905
152	0xbd483f9d	-0.04888879
153	0xbe53a8d3	-0.2066987
154	0xbe88e51e	-0.26737303
155	0xbeab6028	-0.334718
156	0x3c840843	0.01611722
157	0xbeb4153a	-0.35172445
158	0xbde3ba6f	-0.11119544
159	0xbdf5b080	-0.11996555
160	0xbed210b3	-0.41028365
161	0xbeaa0f7b	-0.33214936
162	0xbe386f23	-0.18011145
163	0xbe8a0f29	-0.2696469
164	0xbc7537c6	-0.014966911
165	0xbe44a785	-0.19204529
166	0xbe7624f8	-0.2403754
167	0xbccf9c20	-0.025343
168	0x3ecb5b77	0.3971822
169	0x3e894fe7	0.26818773
170	0x3eccf163	0.40027913
171	0xbeccf28e	-0.40028805
172	0xbea57d70	-0.32322264
173	0xbe41cdab	-0.18926112
174	0xbec3046b	-0.38089308
175	0xbee43053	-0.44568118
176	0xbe8859b3	-0.26630935
177	0xbe32f896	-0.1747764
178	0xbf19c96f	-0.6007299
179	0xbeb0bd4e	-0.34519428
180	0xbf2ae512	-0.66755784
181	0xbf28d6d8	-0.65952826
182	0xbeaf739f	-0.342679
183	0x3dd79645	0.105267085
184	0x3ebc2e67	0.36754152
185	0x3e1f5e02	0.15563205
186	0x3f19ddbd	0.6010397
187	0x3efdbe8f	0.49559447
188	0x3e9ecd6d	0.31016102
189	0x3d7209a8	0.05909124
190	0xbedff4a9	-0.43741348
191	0xbee44c3f	-0.4458942
192	0xbda7acc0	-0.08187246
193	0xbd698544	-0.057011858
194	0x3d4ed884	0.050499454
195	0x3eb35b46	0.35030574
196	0x3cac67e3	0.02104563
197	0x3ed20b4a	0.41024238
198	0x3e21dd20	0.15807009
199	0xbc5cb542	-0.01347095
200	0x3d031a00	0.032007217
201	0x3ed55772	0.41668278
202	0x3e61d55e	0.2205405
203	0x3c39ed12	0.011348026
204	0x3e869688	0.2628672
205	0xbe17d159	-0.14825954
206	0xbe264126	-0.1623579
207	0x3dd1f87b	0.10252472
208	0x3e9077d3	0.2821642
209	0x3e9464ca	0.28983146
210	0xbda3fe69	-0.08007509
211	0x3debc67c	0.11512467
212	0xbe48403a	-0.1955575
213	0x3d9e02df	0.07715391
214	0x3e59813a	0.21240702
215	0x3d81aa6d	0.06331334
216	0xbe01f42e	-0.12690803
217	0x3d952940	0.072832584
218	0x3dbf9da1	0.09356237
219	0x3e8098f4	0.25116694
220	0x3e2042c0	0.15650463
221	0x3dec2d12	0.11532034
222	0x3ec9c99d	0.3941163
223	0x3dac42b8	0.08411163
224	0x3e54f848	0.20797837
225	0x3e072209	0.13196577
226	0x3ecf3dff	0.40476987
227	0x3e32c264	0.17456967
228	0xbe77de9c	-0.24206012
229	0x3c8bb54e	0.017054226
230	0xbe9206dc	-0.28520858
231	0x3d980f73	0.07424822
232	0x3d79c5b3	0.060979556
233	0xbeb2db13	-0.34932765
234	0x3c353876	0.011060825
235	0x3e3668ad	0.17813368
236	0x3def324c	0.11679515
237	0x3d1aacc0	0.037762403
238	0x3e49537c	0.19660753
239	0xbd1df983	-0.03856803
240	0xbdd808c6	-0.105485484
241	0x3e062755	0.13100941
242	0x3e5a0d0e	0.21294042
243	0xbe012433	-0.12611465
244	0x3d310eac	0.043226883
245	0x3d8543de	0.06507085
246	0x3cf2e703	0.02965117
247	0xbda4f7c4	-0.0805507
248	0xbd51cf4d	-0.051223088
249	0xbdf96209	-0.12176902
250	0xbe0bf5a0	-0.13667917
251	0xbe241ddf	-0.1602702
252	0x3ed45864	0.41473687
253	0xbe3a06f9	-0.18166722
254	0xbe1bddb0	-0.15221286
255	0x3e5dc658	0.21657693

backbone.8.bias f4 [64]
0	0x3e66776a	0.2250649
1	0xbebc0cac	-0.36728418
2	0xbe94d82f	-0.29071185
3	0x3ed8d680	0.4235115
4	0xbec756e6	-0.38933486
5	0x3dd3d300	0.103429794
6	0x3d85a43c	0.06525466
7	0x3e32d9a2	0.17465833
8	0x3daf4f6f	0.08560073
9	0x3e018b5e	0.1265082
10	0x3dbd5a83	0.09245779
11	0x3e23ecbf	0.1600828
12	0xbead2a84	-0.338215
13	0xbe1a35b6	-0.15059552
14	0x3e8dd94b	0.27704844
15	0x3dcfd5fe	0.10148238
16	0x3dc09a33	0.09404411
17	0x3e1bde70	0.15221572
18	0xbe6920d0	-0.22766423
19	0x3d2c0d13	0.042004656
20	0x3dddf0b5	0.10836927
21	0x3df0a567	0.11750298
22	0x3ea875be	0.3290233
23	0xbc5d70d5	-0.013515671
24	0x3e73961a	0.23787728
25	0xbe97a12b	-0.2961515
26	0xbec1c8a3	-0.37848386
27	0x3e29c56d	0.16579218
28	0x3d3b4d62	0.045728095
29	0x3e45b454	0.19307071
30	0x3e1e8c6d	0.15483256
31	0xbe88a148	-0.26685548
32	0xbf1fcf9b	-0.62426156
33	0x3d6d2d62	0.05790461
34	0x3ea5847f	0.3232765
35	0x3e074f39	0.13213815
36	0x3e608419	0.21925391
37	0xbe8285e7	-0.25492784
38	0xbf27735d	-0.65410405
39	0xbdf321a0	-0.11871648
40	0x3daa0130	0.08301008
41	0x3de37f77	0.11108296
42	0x3e3e060f	0.18556999
43	0x3dfc251a	0.12311764
44	0xbf1acdd7	-0.60470337
45	0x3cea5eb8	0.028609619
46	0x3e63d5a2	0.22249463
47	0x3eb9ff9e	0.36327833
48	0x3eadc330	0.3393798
49	0x3e0c65e7	0.13710748
50	0x3e1795e0	0.14803267
51	0x3e1f6893	0.15567236
52	0x3d651f93	0.055938315
53	0x3e26f3c8	0.16303933
54	0x3d90fab3	0.07079067
55	0x3e924e84	0.28575528
56	0xbe9f5e3a	-0.31126577
57	0x3e052e4e	0.13005945
58	0x3db55ae5	0.088552274
59	0x3e8a7e5f	0.27049538
60	0x3e9f4073	0.31103858
61	0x3e13e063	0.14441065
62	0xbec4bd87	-0.38425848
63	0x3de29f27	0.11065512

backbone.9.weight f4 [64]
0	0x3f2c77ab	0.673701
1	0x3f9cd8a7	1.2253617
2	0x3fa79635	1.3092715
3	0x3f82e0d7	1.0224866
4	0x3fa0530c	1.2525344
5	0x3f5ddba1	0.8666325
6	0x3f9264a7	1.1436967
7	0x3f4230de	0.75855815
8	0x3f807332	1.0035155
9	0x3f690628	0.9102502
10	0x3f5db6ec	0.8660724
11	0x3f6a70fc	0.9157865
12	0x3f981729	1.1882068
13	0x3f8c8962	1.0979426
14	0x3f38efc4	0.72240853
15	0x3f75d5bd	0.96029264
16	0x3f3e3ea1	0.74314314
17	0x3f71ef8c	0.94506145
18	0x3f8e278f	1.1105822
19	0x3f772f16	0.9655622
20	0x3f783f7e	0.9697188
21	0x3f6c09f6	0.922027
22	0x3f5adbfd	0.85491925
23	0x3fb14104	1.3847966
24	0x3f718c09	0.943543
25	0x3f908e81	1.1293489
26	0x3fa0ec58	1.2572126
27	0x3f49d4f4	0.78840566
28	0x3f41a3c6	0.75640523
29	0x3f60e588	0.87850237
30	0x3f4135e3	0.7547285
31	0x3f915d67	1.1356629
32	0x3fb11907	1.3835763
33	0x3f8664a0	1.0499458
34	0x3f7526ff	0.9576263
35	0x3f59c67a	0.85068476
36	0x3f59fa26	0.8514732
37	0x3fb5e457	1.4210309
38	0x3fbba59b	1.4659914
39	0x3fb2fa71	1.3982679
40	0x3f56e815	0.8394788
41	0x3f48a9a3	0.78383845
42	0x3f6239fa	0.88369715
43	0x3f34dfdf	0.706541
44	0x3fa937a8	1.322011
45	0x3f4821bf	0.7817649
46	0x3f5e77a6	0.8690132
47	0x3f327aaf	0.6971845
48	0x3f5754a9	0.84113556
49	0x3f4d10fc	0.8010404
50	0x3f63bddc	0.8896158
51	0x3f59d6e9	0.8509355
52	0x3f444535	0.766681
53	0x3f663369	0.89922196
54	0x3f42ac99	0.76044613
55	0x3f6a538e	0.91533744
56	0x3f8ef9c0	1.1169968
57	0x3f3b5b05	0.7318576
58	0x3f2df874	0.67957234
59	0x3f5c21f6	0.8598932
60	0x3f82d3fb	1.0220941
61	0x3f5def7f	0.8669357
62	0x3fa15b2b	1.2605947
63	0x3f6b5765	0.9193023

backbone.9.bias f4 [64]
0	0xbf4d4506	-0.80183446
1	0xbe8d98b9	-0.2765558
2	0xbe8eac86	-0.27866
3	0xbea075f6	-0.31339997
4	0xbeaa7b9a	-0.33297426
5	0xbf4b32eb	-0.7937457
6	0xbf0b325b	-0.5437371
7	0xbf5bb682	-0.8582536
8	0xbf0c837e	-0.5488814
9	0xbf0eaf01	-0.55735785
10	0xbf425f4c	-0.7592666
11	0xbf0378a1	-0.5135594
12	0xbe94fba5	-0.2909824
13	0xbefb329e	-0.49062055
14	0xbf10f9fc	-0.56631446
15	0xbf2c2de6	-0.67257535
16	0xbf285264	-0.6575072
17	0xbf20e8c6	-0.62855184
18	0xbe8fce53	-0.280871
19	0xbf0ebb7b	-0.5575482
20	0xbf12c526	-0.57332075
21	0xbf1b17ad	-0.60583
22	0xbebd857c	-0.37015903
23	0xbf0bd9dd	-0.5462931
24	0xbf354153	-0.708028
25	0xbeb0cda5	-0.34531894
26	0xbe7317ab	-0.23739497
27	0xbed3614b	-0.41285166
28	0xbf29d985	-0.66347533
29	0xbf70d063	-0.9406797
30	0xbf3372fd	-0.70097333
31	0xbeb0d542	-0.34537703
32	0xbe26d165	-0.16290815
33	0xbeb6ffe8	-0.35742116
34	0xbedf8a6c	-0.43660295
35	0xbf6aa0f8	-0.9165187
36	0xbf366de2	-0.7126142
37	0xbf0f0c0e	-0.5587777
38	0xbe2a85a9	-0.1665255
39	0xbf8928db	-1.0715593
40	0xbedf8405	-0.4365541
41	0xbf4330bf	-0.76246256
42	0xbf247f52	-0.64256775
43	0xbf596dd5	-0.84933215
44	0xbed17e9d	-0.4091691
45	0xbf18dae5	-0.59709007
46	0xbf169c94	-0.5883267
47	0xbef9a813	-0.48761043
48	0xbf28a155	-0.65871173
49	0xbf65a17b	-0.89699525
50	0xbf835c69	-1.0262576
51	0xbf241113	-0.64088553
52	0xbf200439	-0.62506443
53	0xbf2d9c79	-0.67816883
54	0xbf0c2e5e	-0.5475825
55	0xbf32b6aa	-0.69809973
56	0xbed62d73	-0.4183155
57	0xbf2f14ec	-0.683913
58	0xbf3afc89	-0.7304159
59	0xbf4779e3	-0.7792036
60	0xbf1908fb	-0.5977933
61	0xbf1e5195	-0.61843234
62	0xbe7e64fe	-0.24843213
63	0xbf1577e3	-0.5838606

backbone.9.running_mean f4 [64]
0	0x3f939c5f	1.1532096
1	0xbeb2377b	-0.34807953
2	0xbf509c30	-0.81488323
3	0xbfa3bfa6	-1.2792861
4	0x3e9a1d26	0.30100363
5	0xbefb9d3b	-0.49143395
6	0x3f97f62a	1.1871998
7	0xbf283220	-0.65701485
8	0x3fb7dfc4	1.4365163
9	0x3fcc7e82	1.5976107
10	0x3ec337ac	0.38128412
11	0xbf9047cf	-1.1271914
12	0xbe92596f	-0.28583857
13	0x3f0c73ea	0.5486437
14	0x3ecccd87	0.40000555
15	0xbee87a73	-0.4540592
16	0x400defb3	2.217755
17	0xbf6715e7	-0.90267795
18	0x3d52bc4c	0.051449105
19	0x3fcb0c49	1.5863124
20	0x3fcedc18	1.6160917
21	0x3daab8df	0.083360426
22	0xbf1eba33	-0.6200287
23	0x3f99938c	1.1998153
24	0xbe8b2f13	-0.27184352
25	0xbf22ac80	-0.63544464
26	0xbfaf50a4	-1.3696485
27	0x3c7d85be	0.015473781
28	0xbe70fb01	-0.2353325
29	0xbe73268d	-0.23745175
30	0x3f0ec69d	0.5577181
31	0xbf74a038	-0.95556974
32	0x3fc385d9	1.5275222
33	0x3ff56efd	1.9174496
34	0x3fd13572	1.6344435
35	0x3efedb72	0.49776798
36	0xbe97b744	-0.29632008
37	0x3f1a83ce	0.6035737
38	0x3fbeebd2	1.4915717
39	0xbd5b4595	-0.053533155
40	0xbe584d42	-0.21123222
41	0x3f8ee88a	1.1164715
42	0xbf3d4e63	-0.73947734
43	0x3fd69d1a	1.6766694
44	0xbf3781f9	-0.716827
45	0x3fc217b2	1.5163481
46	0xbd90178f	-0.070357434
47	0xbea065a1	-0.31327537
48	0x3efe3581	0.49650195
49	0x3f5dbbdd	0.8661478
50	0x3f813af0	1.0096111
51	0xbf185d34	-0.59517217
52	0x3dffcd15	0.12490288
53	0xbe83b7a9	-0.2572606
54	0x3f1441c1	0.5791283
55	0xbeadfc28	-0.33981442
56	0x3fd64ef4	1.6742845
57	0x3f8b2e48	1.0873499
58	0x3fcfbdb9	1.6229774
59	0x3fb6128e	1.4224412
60	0xbf805094	-1.002459
61	0x3ec0acbe	0.37631792
62	0x3f34c46e	0.7061223
63	0x4007535d	2.114463

backbone.9.running_var f4 [64]
0	0x3fbfda6e	1.4988534
1	0x3fbddb2f	1.4832515
2	0x3fda1c85	1.7039953
3	0x3fdd9662	1.7311518
4	0x3fb45854	1.4089456
5	0x400be442	2.1858068
6	0x400f7127	2.2412813
7	0x3fccb105	1.5991522
8	0x4001dc6b	2.0290782
9	0x400ecd42	2.231278
10	0x3fec3e9d	1.8456608
11	0x40098fba	2.1493974
12	0x3fb25413	1.3931907
13	0x3fb758a5	1.4323927
14	0x3ff6a3fe	1.9268796
15	0x4005e7e3	2.0922782
16	0x40229a2b	2.5406597
17	0x400c9975	2.1968663
18	0x3fe8f486	1.8199623
19	0x400c0b88	2.1882038
20	0x3fce8356	1.613383
21	0x3f852f83	1.0405124
22	0x4052d85d	3.2944558
23	0x3fb4984d	1.4108979
24	0x3fd14c84	1.6351476
25	0x3fc911e3	1.5708584
26	0x3fe5669e	1.7921941
27	0x404fd882	3.2475896
28	0x3fdfcf98	1.7485228
29	0x4001a694	2.0257921
30	0x3fc4ff82	1.5390475
31	0x3fd6579a	1.6745484
32	0x3f9d5744	1.2292256
33	0x3fb80fb8	1.4379797
34	0x3fc3b703	1.5290226
35	0x4001f260	2.0304184
36	0x40012bc3	2.018296
37	0x3fdfd329	1.7486316
38	0x3fad4a0e	1.3538225
39	0x400ce0fe	2.2012324
40	0x4066ea45	3.6080487
41	0x3fd675a1	1.6754647
42	0x401c0989	2.438082
43	0x3ff59b38	1.9187994
44	0x400dd262	2.2159657
45	0x3ff8052c	1.9376578
46	0x3f870d82	1.0550997
47	0x401e7883	2.4761055
48	0x3fd49314	1.6607385
49	0x3fe97efc	1.8241878
50	0x40153c9e	2.3318248
51	0x4016e66d	2.357814
52	0x4001d55f	2.0286481
53	0x401c3a3c	2.4410543
54	0x40010ae3	2.0162895
55	0x40214591	2.519871
56	0x3f9d1f4e	1.2275178
57	0x3fc6290c	1.5481277
58	0x3ffa6d66	1.9564636
59	0x3fe52215	1.7901026
60	0x40133952	2.3003736
61	0x3f829585	1.020188
62	0x3f9305be	1.1486127
63	0x3fe566af	1.7921962

head.0.weight f4 [128, 64]
0	0xbe0425c7	-0.12905036
1	0xbe707c35	-0.23484881
2	0xbebdcebc	-0.37071788
3	0x3e65e85d	0.22451921
4	0xbe447572	-0.19185427
5	0x3e1e47cf	0.1545708
6	0xbe59f291	-0.21283938
7	0x3e348ea2	0.17632535
8	0xbdf1021a	-0.11767979
9	0xbe04b8d5	-0.12961133
10	0x3da5d7c9	0.080977984
11	0x3e63c86c	0.22244424
12	0xbe6b4ee7	-0.22979318
13	0xbe9d0579	-0.30668238
14	0x3da9a65c	0.08283684
15	0x3e840c23	0.2579051
16	0xbda0d59b	-0.07853242
17	0x3d93e2ad	0.07220969
18	0xbe615cb1	-0.22008015
19	0xbe3180f9	-0.17334355
20	0xbe0f5017	-0.13995396
21	0x3e174971	0.1477411
22	0xbd270305	-0.040774364
23	0xbef36ce9	-0.4754403
24	0x3e6d920f	0.23200248
25	0xbe0fe2c6	-0.14051351
26	0xbe7815be	-0.24227044
27	0x3d857d32	0.0651802
28	0x3d33ba37	0.04387876
29	0x3e8d633c	0.27614772
30	0x3d43c6af	0.0477969
31	0xbeb664b6	-0.3562371
32	0xbdc2c4ac	-0.095101684
33	0x3db96963	0.09053304
34	0x3e6250fb	0.22101204
35	0x3d547c9b	0.051876646
36	0x3e43c84b	0.19119374
37	0xbf05713d	-0.5212591
38	0x3cb1901e	0.021675166
39	0x3e6fe2e5	0.23426397
40	0xbcf9e9a5	-0.030506918
41	0xbd38fd88	-0.04516366
42	0x3e026ba3	0.12736373
43	0xbc777e5f	-0.015105813
44	0x3d0a2264	0.033724204
45	0xbd8d5825	-0.06901578
46	0x3df6baa9	0.12047321
47	0x3e2b118b	0.16705911
48	0x3e1ff325	0.15620096
49	0x3e362bea	0.1779019
50	0x3df490a1	0.11941648
51	0x3dfdc712	0.12391485
52	0xbe0a81e6	-0.13526115
53	0x3e783c9c	0.2424187
54	0xbd8e5c27	-0.069511704
55	0x3e6d884f	0.23196529
56	0xbea3255a	-0.31864434
57	0xbbd702d8	-0.0065616183
58	0x3d861221	0.065464266
59	0x3e3b931a	0.18317834
60	0x3e4583cf	0.19288562
61	0x3e4303bf	0.19044398
62	0xbe129961	-0.14316322
63	0xbe8ed73c	-0.27898586
64	0xbdf95630	-0.12174642
65	0xbe15a267	-0.14612733
66	0xbd069823	-0.032859933
67	0xbde4ebcd	-0.11177788
68	0xbbc0f3e3	-0.0058884486
69	0x3decc319	0.115606494
70	0x3dc754a3	0.0973294
71	0x3c78efbe	0.015193878
72	0xbd365ef9	-0.044524167
73	0xbdbe62b6	-0.09296171
74	0xbdea791b	-0.1144888
75	0xbc8274dd	-0.015924865
76	0xbd03eabf	-0.032206293
77	0xbe1c2ee9	-0.1525227
78	0xbda6fcc6	-0.081536815
79	0x3c9ee526	0.019396376
80	0x3c529d0f	0.0128548285
81	0xbdc8245c	-0.0977256
82	0x3c82d668	0.015971377
83	0x3ceea8aa	0.02913316
84	0xbd7d60a9	-0.06185976
85	0xbe00c8e5	-0.12576635
86	0xbdcb66a4	-0.099316865
87	0xbd85eee2	-0.06539704
88	0xbde66a52	-0.11250748
89	0xbd3d5013	-0.046218943
90	0xbd46788c	-0.048454806
91	0x3dcafa17	0.09910982
92	0x3d69839f	0.05701029
93	0x3db29b27	0.08720999
94	0xbd4bb2f4	-0.04973121
95	0xbcbbaab2	-0.022908542
96	0x3d374fde	0.0447539
97	0xbd35132f	-0.044207748
98	0xbe0383c7	-0.12843238
99	0xbcb224f7	-0.021746142
100	0x3d8076e8	0.062726796
101	0xbe196253	-0.14978914
102	0x3d0aedb8	0.033918113
103	0xbd6dc486	-0.058048747
104	0x3db46025	0.088074006
105	0xbc4b78fe	-0.0124189835
106	0x3dc6005d	0.09668038
107	0x3dcafd9d	0.09911654
108	0xbe165fe2	-0.14685014
109	0xbdadb1ad	-0.084811546
110	0xbd753c74	-0.059872106
111	0x3d9be452	0.07611908
112	0x3dcc19aa	0.099658325
113	0xbd67a342	-0.05655218
114	0x3c439b64	0.0119389035
115	0xbb7aa912	-0.0038247746
116	0x3c8b1cde	0.016981538
117	0xbd18a990	-0.037271082
118	0x3d62aa0e	0.055337958
119	0xbd271ada	-0.040797092
120	0xbd22542d	-0.039631058
121	0xbd894325	-0.0670226
122	0x3c955cce	0.01823273
123	0x3dd4e1f7	0.10394662
124	0x3d2703a6	0.040774964
125	0x3da8036a	0.08203776
126	0xbd7a4ef6	-0.06111046
127	0xbd320da1	-0.04347003
128	0x3e8254e7	0.254554
129	0xbe37855e	-0.1792197
130	0xbdd88443	-0.10572102
131	0xbaf99102	-0.0019040408
132	0xbebb1445	-0.36538902
133	0x3d9647a0	0.0733788
134	0x3ea88b74	0.32918894
135	0x3eb671ba	0.3563364
136	0x3e1d77ee	0.15377781
137	0x3e053880	0.13009834
138	0x3e675c03	0.22593693
139	0xbdcc1ac5	-0.099660434
140	0xbe9025f6	-0.28153962
141	0xbde22842	-0.11042835
142	0x3e514cdb	0.20439474
143	0x3d6fe073	0.05856366
144	0x3ec3325b	0.38124356
145	0xbc84055e	-0.01611584
146	0xbe4398bb	-0.19101231
147	0x3e66cae3	0.22538333
148	0x3eccf4b9	0.4003046
149	0xbcd8e9f3	-0.026478743
150	0x3eeebbb0	0.4662757
151	0x3e284ff4	0.1643675
152	0xbd5b3975	-0.053521592
153	0xbef45f59	-0.47728994
154	0xbee59433	-0.4483963
155	0x3eb33b9d	0.3500642
156	0x3f001619	0.5003372
157	0xbcb300ed	-0.021851027
158	0x3e8d2a59	0.2757137
159	0xbebf78c2	-0.37396818
160	0xbee1111b	-0.43958363
161	0xbdeba551	-0.11506141
162	0x3da4b33f	0.08042001
163	0x3e36f7ba	0.17867938
164	0x3c9d83bc	0.019227855
165	0x3cd746b4	0.026278831
166	0xbe7a6cdb	-0.24455588
167	0xbeda656e	-0.4265551
168	0x3ec2de84	0.3806039
169	0x3ea03377	0.31289265
170	0x3d9cc967	0.07655602
171	0x3e355e63	0.17711787
172	0x3d254abe	0.040354483
173	0x3e49121e	0.19635817
174	0x3e33b469	0.1754929
175	0x3e3cfc45	0.18455608
176	0x3e247467	0.16060029
177	0x3eeffe09	0.468735
178	0x3eb928a4	0.3616382
179	0x3cc14896	0.023594182
180	0x3ecc9a9c	0.39961708
181	0x3e85530c	0.26039922
182	0x3e8bb3cd	0.27285615
183	0x3e63b42c	0.22236699
184	0xbe39529f	-0.18097924
185	0x3e7c7df3	0.24657421
186	0x3eed8dcf	0.46397254
187	0x3e9a2ff5	0.30114713
188	0xbdc193a5	-0.09451989
189	0xbce31252	-0.027718697
190	0xbe8503d7	-0.25979492
191	0x3e8be331	0.2732177
192	0x3dba896a	0.09108241
193	0x3d142d9f	0.03617632
194	0xbddf55cd	-0.10905037
195	0xbcc1ba40	-0.023648381
196	0xbda1edb1	-0.07906664
197	0x3cf83fa6	0.030303787
198	0x3dafe91e	0.085893854
199	0x3dc58896	0.09645192
200	0x3d6176c8	0.05504492
201	0x3c9f7ac9	0.019467728
202	0x3d70ecce	0.058819585
203	0x3c10b0cb	0.008831213
204	0xba6bf514	-0.0009001058
205	0x3d9295b3	0.07157459
206	0x3d9ca433	0.07648506
207	0xbd074093	-0.033020567
208	0x3d4c0642	0.049810655
209	0xbd9df3fe	-0.077125534
210	0xbd6002e9	-0.054690275
211	0x3daa68a2	0.083207384
212	0xbd47fc76	-0.04882475
213	0x3d8a29a9	0.06746227
214	0x3db9dd2c	0.09075388
215	0xbda1299b	-0.07869264
216	0x3bd69d1c	0.0065494906
217	0xbda04eb2	-0.0782751
218	0xbd1cec6a	-0.0383114
219	0x3bd62bc1	0.0065359776
220	0xbdb4cda4	-0.08828285
221	0x3dcbb807	0.0994721
222	0x3dac89b2	0.08424701
223	0xbd12f567	-0.035878565
224	0xbe0907eb	-0.13381927
225	0xbde131fb	-0.10995861
226	0xbce3ef3d	-0.027824039
227	0xbcba6368	-0.022752479
228	0xbd9965c3	-0.07490113
229	0xbd76408d	-0.060120154
230	0xbdacb3dc	-0.08432743
231	0xbd996a5e	-0.07490991
232	0xbcbb91fb	-0.022896757
233	0xbd865569	-0.065592594
234	0xbd4676cf	-0.04845315
235	0xbcadda54	-0.021222271
236	0x3dba3962	0.09092976
237	0x39fd2c75	0.00048289043
238	0x3d437ca0	0.047726274
239	0xbd8d978c	-0.06913671
240	0x3daa2e5f	0.08309626
241	0xbda804d3	-0.08204045
242	0xbd905cfa	-0.07048984
243	0xbddf83d4	-0.10913816
244	0x3cce0793	0.025150096
245	0x3ad3b943	0.0016153235
246	0x3d83264f	0.06403791
247	0xbd996098	-0.07489127
248	0x3da1ebc6	0.07906298
249	0x3d11cfbf	0.035598513
250	0xbd84adac	-0.06478438
251	0xbc86ba91	-0.016446384
252	0xbdf3ed8b	-0.11910542
253	0x3c41bb63	0.011824462
254	0x3da9be3a	0.08288236
255	0xbd938599	-0.07203216

head.0.bias f4 [128]
0	0xbe070618	-0.13185918
1	0x3ca368be	0.019947406
2	0x3dc37158	0.09543103
3	0xbc1a9f00	-0.009437323
4	0xbd8f4195	-0.06994931
5	0x3ac1f653	0.0014798142
6	0xbd82a50e	-0.06379138
7	0xbb2bb271	-0.0026198889
8	0x3c9233cd	0.017846966
9	0xbc139fc7	-0.009010262
10	0xbcb3bf10	-0.021941692
11	0x3e02c50c	0.1277048
12	0x3d87d8f5	0.06633178
13	0xbe0fc8ea	-0.14041486
14	0xbcd07e4b	-0.025450846
15	0x3d11af6c	0.035567686
16	0x3d911af6	0.070852205
17	0x3d6fbf99	0.05853233
18	0xbccbdbe7	-0.024885131
19	0xbcb1222e	-0.021622743
20	0xbe1dcb58	-0.154096
21	0x3d007c6d	0.03136866
22	0x3d3595d5	0.044332344
23	0xbdd8ad19	-0.10579891
24	0x3d9b365e	0.07578729
25	0xbd97aa7e	-0.07405566
26	0xbcbd1630	-0.023081869
27	0xbd085bc1	-0.03329063
28	0x3da38c25	0.07985715
29	0x3ceeb9a5	0.029141257
30	0x3e2cb963	0.16867594
31	0xbc63b2c4	-0.0138976015
32	0x3da7ace7	0.081872754
33	0xbe01a5c7	-0.12660895
34	0xbd4b60f1	-0.049652997
35	0xbd34248d	-0.04398017
36	0xbcfb7822	-0.030696932
37	0x3dad6d95	0.08468167
38	0x3c3230e9	0.010875919
39	0xbdd1f242	-0.10251285
40	0xbce06867	-0.027393533
41	0x3dee6ef7	0.116422586
42	0xbc1d4099	-0.009597921
43	0x3dedcf57	0.116118126
44	0xbc5d1e0a	-0.013495931
45	0x3daeadfd	0.085292794
46	0x3d74d782	0.059775837
47	0xbdecc470	-0.11560905
48	0x3d2ed18e	0.042680316
49	0xbd8c0367	-0.068365864
50	0xbcea4c26	-0.028600764
51	0xbe10f0a5	-0.14154299
52	0xbd12a8cd	-0.035805512
53	0xbc7e1eca	-0.01551027
54	0xbe0fa819	-0.14028968
55	0x3c350a94	0.011049885
56	0x3dae9095	0.085236706
57	0x3d904614	0.07044616
58	0xbd97e128	-0.07415992
59	0x3e00100c	0.12506121
60	0xbd83c872	-0.06434716
61	0xbd160728	-0.03662792
62	0xbdc1beef	-0.09460246
63	0xbc378ed9	-0.011203491
64	0xbe1508d9	-0.14554156
65	0x3e0a888a	0.13528648
66	0x3e368bd9	0.17826785
67	0x3d3cd3dd	0.046100486
68	0x3d8c5be7	0.068534665
69	0xbd3b1acc	-0.045679852
70	0xbdc0f04a	-0.094208315
71	0xbdf9e0d7	-0.12201088
72	0x3d9b0306	0.07568936
73	0x3e296275	0.16541465
74	0xbd47ccfe	-0.04877948
75	0x3cd28f60	0.025703132
76	0x3d4e2854	0.05033143
77	0x3daa8387	0.08325868
78	0xbd8a5f94	-0.06756511
79	0xbdbd5a0a	-0.09245689
80	0x3d569d4c	0.052396104
81	0x3d3f934b	0.04677133
82	0x3e1000c9	0.140628
83	0xbcf91186	-0.030403864
84	0xbc2518a0	-0.010076672
85	0xbd432c80	-0.04764986
86	0x3dbb3c76	0.091423914
87	0xbd664990	-0.0562225
88	0x3e0d9687	0.13826953
89	0x3dc53d74	0.09630862
90	0xbdb4a0fc	-0.08819768
91	0x3d7b0202	0.06128121
92	0x3cbaa014	0.02278141
93	0xbc3859af	-0.011251851
94	0xbcc71453	-0.024301684
95	0xbd88c146	-0.06677489
96	0xbe0d61f2	-0.13806894
97	0x3d14aabb	0.036295634
98	0x3d577a42	0.05260683
99	0xbdd61981	-0.10454083
100	0x3d8c5795	0.068526424
101	0x3c660b5f	0.014040797
102	0xbcd56f82	-0.026054148
103	0xbd828e64	-0.06374815
104	0x3d84f5c3	0.06492188
105	0x3e4ff49a	0.20308152
106	0xbdea4c77	-0.11440366
107	0xbcc54ee4	-0.02408547
108	0x3de00690	0.10938752
109	0x3d96b093	0.073578976
110	0x3ba328c5	0.0049792253
111	0x3de71937	0.11284106
112	0xbb3ca1b2	-0.0028782901
113	0x3db3fb10	0.08788121
114	0x3bf1961a	0.00737263
115	0x3da4f6b0	0.080548644
116	0xbe015126	-0.12628612
117	0xbe1ef5a5	-0.15523393
118	0x3e0c6104	0.13708884
119	0xbbe11f25	-0.006870168
120	0x3e0ca8fe	0.1373634
121	0xbcc1a31a	-0.023637343
122	0x3d4dcc3f	0.050243612
123	0xbd9189a3	-0.0710633
124	0x3bed1d73	0.0072361766
125	0xbd120c4a	-0.03565625
126	0x3dd50f86	0.104033515
127	0xbd460031	-0.048340026

head.3.weight f4 [2, 128]
0	0xbecdb39f	-0.40176103
1	0xbcee2061	-0.029068174
2	0xbf893723	-1.0719951
3	0x3cd6d473	0.02622435
4	0x3d6f8a51	0.05848152
5	0xbab3ba48	-0.0013712132
6	0xbc8b33f1	-0.016992541
7	0xbf1c296a	-0.6100069
8	0xbd534cfa	-0.051587082
9	0xbf24f338	-0.6443362
10	0xbd86377c	-0.065535516
11	0xbf2b70db	-0.6696908
12	0x3c8541a2	0.016266648
13	0x3d3bf850	0.045891106
14	0x3d37f4e1	0.04491127
15	0x3ba83bc1	0.0051340763
16	0xbf10b328	-0.5652337
17	0x3d19b0cf	0.037522133
18	0xbf250ff0	-0.64477444
19	0x3d3200db	0.043457847
20	0xbbba764a	-0.0056903707
21	0xbf2e7d63	-0.68160075
22	0xbc597bb9	-0.013274127
23	0xbb65cccc	-0.0035064695
24	0x3d8ae7a6	0.06782465
25	0xbf21185b	-0.6292779
26	0x3d7b0c84	0.061291233
27	0xbbc9209a	-0.0061379196
28	0x3f15cbe1	0.5851422
29	0x3c2f380c	0.010694515
30	0xbef055ac	-0.46940362
31	0xbd720061	-0.059082393
32	0xbedf4388	-0.4360621
33	0xbd3c2f15	-0.04594334
34	0xbf19c107	-0.6006016
35	0xba938de2	-0.0011257494
36	0xbd28a0f6	-0.04116913
37	0xbd746eda	-0.05967603
38	0xbf4d43fe	-0.8018187
39	0x3d6b498d	0.05744319
40	0x3d23052c	0.039799854
41	0xbf58face	-0.847577
42	0x3d62e4df	0.05539405
43	0xbf566f8e	-0.8376397
44	0x3d8625d2	0.065501824
45	0xbf2c15ca	-0.6722075
46	0xbf29926f	-0.66239065
47	0x3daa2a76	0.0830888
48	0xbb82a6e4	-0.00398718
49	0x3d8610b6	0.06546156
50	0x3cd0dc26	0.0254956
51	0xbbe8b305	-0.007101419
52	0x3d37fc91	0.0449186
53	0xbf1990f3	-0.599868
54	0x3d3972f1	0.045275632
55	0x3d790a63	0.06080092
56	0x3d31d504	0.04341604
57	0xbf34090f	-0.7032632
58	0xbe66ff54	-0.22558337
59	0xbea71a9e	-0.32637495
60	0xbb7b0fff	-0.0038309095
61	0xbf14c814	-0.58117795
62	0x3d1d5ab2	0.038416572
63	0xbf23a0a2	-0.6391698
64	0x3c99538a	0.018716592
65	0xbed714aa	-0.42007953
66	0xbf1769ee	-0.5914601
67	0x3c359349	0.011082479
68	0xbf0725d7	-0.52792114
69	0xbf04121b	-0.51590127
70	0xbcfa8f28	-0.03058584
71	0xbce1972f	-0.02753791
72	0xbec96adf	-0.3933935
73	0xbf2f7862	-0.68543065
74	0x3d8a71e8	0.06760007
75	0xbf0a8e6f	-0.54123586
76	0xbf0fb47b	-0.56134766
77	0xbf35fe36	-0.7109102
78	0x3d095d42	0.033536203
79	0xbc25ff70	-0.010131702
80	0x3b22b310	0.0024825968
81	0xbebb3912	-0.3656698
82	0xbeb3d2d3	-0.35121784
83	0xbe617903	-0.22018819
84	0xbf2b2d44	-0.66865945
85	0x3b5856b9	0.0033010675
86	0xbd333c14	-0.043758467
87	0xbd224a6f	-0.039621767
88	0xbf5adb45	-0.8549083
89	0x3d370dff	0.044691082
90	0x3d7f1c4e	0.062282853
91	0xbf2ad48d	-0.66730577
92	0xbcbe9d7c	-0.023268454
93	0x3b59fcef	0.0033262332
94	0xbdb10852	-0.08644165
95	0x3c562fdd	0.013072935
96	0xbf3465cc	-0.7046783
97	0x3c665f64	0.014060829
98	0xbf4997d2	-0.78747284
99	0x3d1200a7	0.035645153
100	0xbd16e1e4	-0.03683652
101	0x3da91c42	0.08257343
102	0xbea0160b	-0.31266817
103	0xbc57739e	-0.013150124
104	0xbf170bba	-0.5900227
105	0xbee8af9e	-0.45446485
106	0x3cce0217	0.02514748
107	0x3d74166a	0.05959169
108	0xbf2ad84d	-0.667363
109	0xbef3fb7d	-0.47652808
110	0x3d24cd06	0.040234588
111	0xbf131323	-0.57451075
112	0xbf2b1e5b	-0.66843194
113	0xbf3c3a1e	-0.7352618
114	0x3d92e7ec	0.07173142
115	0xbf18579b	-0.59508675
116	0x3c17de54	0.009269316
117	0x3d21e443	0.039524328
118	0xbebd92f1	-0.3702617
119	0xbec87bd9	-0.39156988
120	0x3f122e51	0.57101923
121	0xbc827682	-0.01592565
122	0xbf00a077	-0.5024485
123	0xbf1b0334	-0.6055176
124	0xbf42abcb	-0.76043385
125	0x3d3117fa	0.043235756
126	0x3f294106	0.6611484
127	0xbf07021e	-0.52737606
128	0x3ed7d06d	0.42151204
129	0xbd1a3c8d	-0.037655402
130	0x3f895a5e	1.0730703
131	0xbcfaa657	-0.030596895
132	0xbbf6bec0	-0.0075300634
133	0x3d57a9fb	0.05265234
134	0xbd9ae0d1	-0.075624116
135	0x3f2c75bb	0.6736714
136	0xbcdfc5cd	-0.027315998
137	0x3f2918cb	0.66053456
138	0xbd46f864	-0.048576728
139	0x3f3b30a2	0.7312108
140	0xbd9d93cb	-0.07694205
141	0xbc9dd5ed	-0.019267047
142	0x3c03f364	0.008053634
143	0xbc8b7a87	-0.017026199
144	0x3f0fafba	0.5612751
145	0x3d100937	0.035165038
146	0x3f3db5c5	0.74105483
147	0xbc2078fd	-0.009794471
148	0x3b2d63bb	0.002645715
149	0x3f217534	0.6306946
150	0xbd914d10	-0.07094777
151	0x3d29405f	0.041321155
152	0x3c85d2b8	0.01633583
153	0x3f1b6d70	0.60713863
154	0x3d78edca	0.06077365
155	0x3dc94bcc	0.0982891
156	0xbf242db4	-0.6413224
157	0xbd80f5c2	-0.062968746
158	0x3ebb6400	0.3659973
159	0x3b88fa19	0.0041802046
160	0x3ef48420	0.47757053
161	0x3d147c58	0.036251396
162	0x3f13876c	0.5762851
163	0xbc403498	-0.011731289
164	0x3d6d1514	0.05788143
165	0xbd1d801e	-0.03845226
166	0x3f295859	0.6615043
167	0xbcc254d8	-0.023722097
168	0x3c4494c3	0.011998358
169	0x3f551c8e	0.83246696
170	0x3d3605b3	0.04443903
171	0x3f6bfb75	0.9218057
172	0x3c5336cf	0.012891485
173	0x3f1da35b	0.61577386
174	0x3f275a0d	0.6537178
175	0x3b4e07fa	0.003143786
176	0xbd42af06	-0.047530197
177	0x3d341244	0.043962732
178	0xbb41e258	-0.0029584374
179	0x3d77ece0	0.060528636
180	0xbcf8131e	-0.030282553
181	0x3f31cb63	0.6945097
182	0xbd52aea8	-0.051436096
183	0x3bed4cfd	0.0072418437
184	0xbd3243d6	-0.043521725
185	0x3f26bf61	0.6513577
186	0x3e20f52e	0.15718529
187	0x3eb3df4c	0.351313
188	0xbcc8ce44	-0.024512418
189	0x3f371f72	0.71532357
190	0xbacabc20	-0.0015467443
191	0x3f1605d8	0.58602667
192	0xbd147bc3	-0.03625084
193	0x3edac998	0.4273193
194	0x3f2df01f	0.6794452
195	0x3adc14a0	0.0016790815
196	0x3f086264	0.5327513
197	0x3f0755bc	0.52865195
198	0xbd4b98cc	-0.049706265
199	0xbca92377	-0.020646794
200	0x3ee97976	0.4560048
201	0x3f256af7	0.6461634
202	0xbd6531c5	-0.055955667
203	0x3f33d444	0.70245767
204	0x3f098e5c	0.5373285
205	0x3f4d9987	0.8031239
206	0xbcaf593d	-0.021404857
207	0xbda6c905	-0.0814381
208	0x3a769be8	0.0009407387
209	0x3e722197	0.23645626
210	0x3eadec67	0.33969423
211	0x3d7b5cb8	0.06136772
212	0x3f3794d6	0.7171148
213	0x3ca2cc85	0.019872913
214	0x3cb4e5f3	0.022082305
215	0xbbed514a	-0.0072423564
216	0x3f5ca58b	0.861901
217	0x3d5c77b4	0.053825095
218	0xbd576b91	-0.052592818
219	0x3f34da15	0.70645267
220	0x3b572784	0.003282995
221	0xbd42ba72	-0.04754109
222	0x3d650df8	0.055921525
223	0xbd93cc18	-0.07216662
224	0x3f2ab7f7	0.6668696
225	0xbd352d5d	-0.044232715
226	0x3f374476	0.7158884
227	0x3cfcdb01	0.030866148
228	0xbc5efcb5	-0.013610055
229	0x3d6879a9	0.05675665
230	0x3ee5e767	0.44903108
231	0xbcda7355	-0.026666323
232	0x3f173f9d	0.5908144
233	0x3f0161aa	0.5053965
234	0x3b4d4c29	0.0031325913
235	0xbc901d7e	-0.017592188
236	0x3f40f385	0.7537158
237	0x3ec0a321	0.37624457
238	0x3d431a78	0.047632664
239	0x3f09ec11	0.53875834
240	0x3f3e0887	0.7423176
241	0x3f342c47	0.7038006
242	0x3cef91e6	0.029244374
243	0x3f11580c	0.56774974
244	0x3d6e69af	0.058206256
245	0x3b08cf71	0.0020875598
246	0x3e8911ed	0.2677149
247	0x3f0990a7	0.53736347
248	0xbf150e5e	-0.5822505
249	0xbd16dcbb	-0.0368316
250	0x3f1b87c9	0.60754067
251	0x3f26cd41	0.6515694
252	0x3f21d2e4	0.6321242
253	0x3cdcafaf	0.026939241
254	0xbf2cbdeb	-0.6747729
255	0x3f0a24c2	0.5396234

head.3.bias f4 [2]
0	0x40016a20	2.0221024
1	0xc0051d02	-2.0798955
