lcnn_weights.pth (torch, 137820 bytes, 22 tensors)

backbone.0.weight f4 [16, 1, 3, 3]
0	0xbedd41d7	-0.43214294
1	0x3ea1713f	0.31531712
2	0x3e9ae27d	0.30250922
3	0xbebe9a4a	-0.37227088
4	0xbdc60782	-0.09669401
5	0xbd24457d	-0.04010533
6	0xbefe8b8e	-0.49715847
7	0x3e589058	0.21148813
8	0x3f00e164	0.5034392
9	0xbe814deb	-0.2525476
10	0x3e7fcf7b	0.24981491
11	0xbcfb4717	-0.030673547
12	0xbdcbdcce	-0.099542245
13	0x3e917300	0.2840805
14	0xbed8114f	-0.42200705
15	0xbefd643b	-0.49490532
16	0x3f17de29	0.59323364
17	0xbe0d95fc	-0.13826746
18	0x3e863a0e	0.26216167
19	0x3d0a0531	0.033696357
20	0x3efff31a	0.4999016
21	0xbf0dad46	-0.5534252
22	0xbeecc983	-0.4624749
23	0xbec82120	-0.39087772
24	0xbf0546ad	-0.5206097
25	0x3d87b4e3	0.06626298
26	0xbd7382e2	-0.05945099
27	0xbe2bd5bf	-0.16780756
28	0xbf12e1d6	-0.5737585
29	0xbf0ad40a	-0.54229796
30	0x3e427c29	0.18992676
31	0x3f1fc3fe	0.62408435
32	0x3eb18904	0.34674847
33	0xbe038cca	-0.12846676
34	0xbcf98210	-0.030457526
35	0x3e8b9b66	0.27266997
36	0x3e95c1a3	0.29249296
37	0xbf210244	-0.6289408
38	0xbeb4a235	-0.35280004
39	0x3f1c0172	0.60939705
40	0x3d51c6aa	0.05121485
41	0x3e9969d9	0.29963568
42	0x3e9774ed	0.29581395
43	0xbe31ae07	-0.17351542
44	0xbc976d0e	-0.018484619
45	0xbe3cc77e	-0.18435475
46	0x3e7fff2e	0.24999687
47	0x3f09be8e	0.5380639
48	0x3e8439a3	0.25825223
49	0xbc5d207d	-0.013496515
50	0xbdc93271	-0.09824074
51	0x3e881094	0.26575148
52	0x3d5bde1b	0.053678613
53	0xbf4bbf96	-0.7958921
54	0x3d2d5c66	0.042324446
55	0x3da99baa	0.08281644
56	0xbede0a0b	-0.43367037
57	0x3ee86ec0	0.45396996
58	0x3efc0509	0.49222592
59	0x3dd14cd6	0.102197334
60	0xbf08fc59	-0.5351005
61	0x3d58f54d	0.052968312
62	0xbebb434b	-0.36574778
63	0x3d9adfc4	0.07562211
64	0xbec83ae2	-0.39107424
65	0x3eca3880	0.3949623
66	0x3e5b8b97	0.21439968
67	0xbf29aee9	-0.66282517
68	0x3f252ff0	0.6452627
69	0xbe84b773	-0.2592121
70	0x3e4ab5e0	0.19795942
71	0x3e3dc04d	0.18530388
72	0xbe7b961a	-0.24568978
73	0x3ef85e19	0.4850929
74	0x3e09d1f7	0.13459001
75	0x3d8b54f6	0.068033144
76	0x3eca9362	0.3956557
77	0x3e35f21a	0.17768136
78	0xbeccb232	-0.39979702
79	0x3e418668	0.18898928
80	0xbf30d0b4	-0.69068456
81	0xbe3fe4fb	-0.18739693
82	0xbec31332	-0.38100582
83	0xbebf837c	-0.37405002
84	0x3f154910	0.5831461
85	0x3e1c040d	0.1523592
86	0xbdbe0eb1	-0.09280146
87	0xbaed299d	-0.0018094067
88	0xbec2bbeb	-0.38033995
89	0x3ec64c51	0.387301
90	0xbddc593d	-0.10759208
91	0x3dd60eac	0.10452017
92	0xbe70fc3d	-0.23533721
93	0x3f02cdcd	0.5109528
94	0x3e8f329c	0.279683
95	0x3ec195a7	0.37809488
96	0xbe1d8647	-0.15383254
97	0xbee1d997	-0.4411132
98	0xbf1a95a0	-0.6038456
99	0xbf1d685f	-0.6148738
100	0x3e528ff3	0.20562725
101	0xbedd5d0b	-0.4323505
102	0x3f06f8d2	0.5272342
103	0xbecfc59a	-0.40580446
104	0x3e698f4a	0.22808567
105	0x3e29926c	0.16559762
106	0xbe770dcc	-0.24126357
107	0x3e4414a5	0.191485
108	0xbc6b15aa	-0.014348427
109	0xbeaeaafb	-0.34114823
110	0x3e5f3302	0.21796802
111	0xbebc2d17	-0.3675315
112	0xbf51afa3	-0.81908625
113	0x3dd8a05c	0.10577461
114	0x3bd6907e	0.0065479865
115	0xbed9f154	-0.4256693
116	0x3eba3780	0.36370468
117	0xbe6d8811	-0.23196436
118	0x3e2e103f	0.16998385
119	0x3ee955d6	0.455733
120	0x3d9b928d	0.07596312
121	0x3eebe006	0.46069354
122	0x3f0ba8bd	0.5455435
123	0x3e09e414	0.13465911
124	0xbe0606a8	-0.13088477
125	0xbf0252a7	-0.5090737
126	0xbe46683f	-0.19375704
127	0x3ebca54d	0.36844864
128	0x3f04960f	0.5179147
129	0x3e877bd8	0.26461673
130	0x3d82b82b	0.063827835
131	0xbf085b14	-0.53263974
132	0x3f2ebfa0	0.68261147
133	0x3cb3f792	0.021968637
134	0x3eb157a9	0.34637192
135	0x3eca406e	0.3950228
136	0x3e52187f	0.20517157
137	0xbf07d4ff	-0.5305938
138	0xbd3589da	-0.04432092
139	0x3e25d16e	0.16193172
140	0xbd54d977	-0.051965203
141	0xbec1d78d	-0.37859765
142	0xbe9633f0	-0.293365
143	0x3f13ef7d	0.57787305

backbone.0.bias f4 [16]
0	0x3e1799ce	0.14804766
1	0x3ed67eca	0.41893607
2	0x3e1ccdd2	0.15312889
3	0x3ea28a0a	0.3174594
4	0x3e051b4b	0.12998693
5	0x3e53f517	0.20698963
6	0xbeb28875	-0.34869733
7	0x3ce5154f	0.027964262
8	0xbeae7c60	-0.34079266
9	0x3e97451a	0.29544908
10	0xbe8b85bb	-0.27250466
11	0xbe82fbb0	-0.25582647
12	0xbe6b5264	-0.22980648
13	0xbdf664a4	-0.120309144
14	0xbe831535	-0.25602117
15	0x3f017eaf	0.5058393

backbone.1.weight f4 [16]
0	0x3f688a1a	0.90835726
1	0x3f4d5b82	0.80217755
2	0x3f49cb15	0.78825504
3	0x3fbfda89	1.4988567
4	0x3f85f286	1.0464637
5	0x3f680011	0.906251
6	0x3f9296b2	1.1452239
7	0x3f4f0497	0.8086638
8	0x3fa0c6da	1.2560685
9	0x3f9538b9	1.1657935
10	0x3fa10777	1.2580403
11	0x3f4a6075	0.7905343
12	0x3f388e46	0.7209209
13	0x3f056cce	0.5211915
14	0x3f4f558b	0.80989903
15	0x3f560c80	0.83612823

backbone.1.bias f4 [16]
0	0xbe787438	-0.24263084
1	0xbe9098ae	-0.28241485
2	0xbd91b703	-0.07114985
3	0x3eca3b6a	0.39498454
4	0xbf3188ba	-0.69349253
5	0xbf0e78be	-0.5565299
6	0x3eab121f	0.33412263
7	0xbef95e0d	-0.48704568
8	0xbf460634	-0.77353215
9	0xbf17a18f	-0.59230894
10	0x3dd24caa	0.10268529
11	0x3e9a711e	0.30164427
12	0xbe42a4b5	-0.19008143
13	0xbf3fbafe	-0.748947
14	0xbf95d11e	-1.1704443
15	0xbf0c1cd6	-0.547315

backbone.1.running_mean f4 [16]
0	0x40f3b8ac	7.616293
1	0x41ab3ad3	21.403723
2	0x429c76a2	78.231705
3	0xbe90327b	-0.28163514
4	0xc1d0399c	-26.02813
5	0xc193970f	-18.44876
6	0x40bac813	5.836923
7	0xc1d8b750	-27.089508
8	0xc10c3db2	-8.765062
9	0x419d0309	19.626482
10	0x41866198	16.797653
11	0x41c81144	25.00843
12	0x42aeccba	87.39986
13	0xc28634df	-67.103264
14	0xc2d0b552	-104.35414
15	0xc01c4577	-2.4417398

backbone.1.running_var f4 [16]
0	0x42d5871e	106.7639
1	0x4253108a	52.76615
2	0x43f02133	480.25937
3	0x430fb1f5	143.69514
4	0x43025a07	130.35167
5	0x42bf8021	95.75025
6	0x42c70429	99.508125
7	0x42c0bcfe	96.369125
8	0x42ee4120	119.1272
9	0x42da97e7	109.296684
10	0x432e880b	174.53142
11	0x42d438b3	106.11074
12	0x440a0dad	552.2137
13	0x43aec411	349.53177
14	0x444dac35	822.69073
15	0x410462b2	8.274096

backbone.4.weight f4 [32, 16, 3, 3]
0	0x3bdd6c35	0.006757284
1	0x3e194c4e	0.14970514
2	0xbe8bac05	-0.27279678
3	0xbe1d7087	-0.15374957
4	0x3e580b44	0.21098047
5	0x3f1df8f2	0.61707985
6	0x3e291828	0.16513121
7	0xbe00486c	-0.12527627
8	0x3ef95205	0.48695388
9	0xbe06e152	-0.1317189
10	0x3e940241	0.2890797
11	0xbea0c56b	-0.31400618
12	0x3db1eaae	0.0868734
13	0xbebca364	-0.36843407
14	0xbf050b42	-0.51970303
15	0xbf56f9b9	-0.83974797
16	0xbeb9ee74	-0.36314738
17	0xbef6e0c6	-0.48218364
18	0x3d0bbdf0	0.034116685
19	0xbf02026b	-0.5078494
20	0xbf32e7ae	-0.69884765
21	0x3e99eec3	0.30064973
22	0x3e69b008	0.22821057
23	0x3ec82b9f	0.3909578
24	0xbf156ec8	-0.58372164
25	0xbf5abd56	-0.85445154
26	0xbec015e9	-0.37516716
27	0x3e87726b	0.2645448
28	0x3ed63ba8	0.4184239
29	0x3e2f6e2f	0.17131875
30	0x3ef66662	0.48124987
31	0xbe6aa51f	-0.22914551
32	0xbda63740	-0.08116007
33	0xbdb049a6	-0.08607797
34	0xbdc8e8e4	-0.09810045
35	0xbe66d271	-0.22541215
36	0xbe182cac	-0.14860791
37	0x3cdcf97a	0.026974428
38	0x3e3faf8f	0.18719314
39	0x3eedb3e1	0.464263
40	0xbe98a65a	-0.29814416
41	0x3df0cc38	0.11757702
42	0xbcf076ab	-0.02935346
43	0xbeaf19bf	-0.3419933
44	0x3d9650b5	0.073396124
45	0x3e6056e6	0.21908149
46	0x3e11f15e	0.1425223
47	0x3ea67d18	0.32517314
48	0x3d8c3f61	0.06848026
49	0x3c83f740	0.016109109
50	0xbe4e1690	-0.20125794
51	0xbef9a4ca	-0.48758537
52	0xbca3bf6c	-0.019988738
53	0xbe731d1a	-0.2374157
54	0x3cb32627	0.021868778
55	0x3e55e654	0.20888644
56	0x3e0dbb3e	0.13840958
57	0xbf05e8bd	-0.52308255
58	0xbf1e9111	-0.61940104
59	0x3e191b01	0.14951707
60	0xbe18f073	-0.14935474
61	0x3db7092e	0.08937298
62	0x3ea99635	0.3312241
63	0xbe1126b4	-0.1417492
64	0xbc677425	-0.014126812
65	0x3d35c68f	0.044378813
66	0xbe029ba2	-0.12754682
67	0x3e0cf028	0.13763487
68	0xbd1248b4	-0.035713866
69	0xbded1ec4	-0.11578134
70	0xbdeeae69	-0.1165436
71	0xbe30a586	-0.17250642
72	0xbe7cbe14	-0.24681884
73	0xbf1f6324	-0.6226065
74	0xbf12129c	-0.57059646
75	0x3e687085	0.22699173
76	0xbd11d5b9	-0.035604212
77	0xbe0247aa	-0.1272265
78	0x3e18dc2a	0.14927736
79	0x3de45983	0.111498855
80	0x3c60e593	0.01372661
81	0x3de8f919	0.113756366
82	0xbf306d9f	-0.6891727
83	0xbcbd40e6	-0.023102235
84	0x3f2fc101	0.68653876
85	0x3e8c17cf	0.27361915
86	0xbd649047	-0.055801656
87	0x3ea36936	0.31916207
88	0x3e22980d	0.15878315
89	0x3ceab5c4	0.028651126
90	0x3dee71ea	0.11642821
91	0x3eceb7da	0.40374643
92	0xbe505a33	-0.20346908
93	0xbf8dc9de	-1.107723
94	0xbe03c22e	-0.12867042
95	0xbf211cbb	-0.62934464
96	0x3e67b349	0.22626986
97	0x3d9f1a27	0.0776866
98	0xbdd5133e	-0.10404061
99	0x3e16bdda	0.1472086
100	0x3e5d181d	0.2159123
101	0x3e9b39bf	0.30317494
102	0x3eee0645	0.46489158
103	0x3ed50b76	0.41610307
104	0x3dc968de	0.09834455
105	0x3decf683	0.11570456
106	0x3eae429c	0.34035194
107	0x3e98124c	0.2970146
108	0x3e21cb86	0.15800294
109	0x3f206a0a	0.626618
110	0x3e92dbd8	0.28683352
111	0xbf659ca3	-0.89692134
112	0xbf1c4749	-0.6104627
113	0xbe544c48	-0.20732224
114	0xbe50c0e3	-0.2038608
115	0xbea98f67	-0.3311722
116	0xbccf8b4d	-0.025334978
117	0x3dac22de	0.08405088
118	0x3e0609fc	0.13089746
119	0x3c1850e7	0.009296632
120	0x3d8b8614	0.06812683
121	0x3e08f8da	0.1337618
122	0xbedee70d	-0.43535653
123	0xbe8c46a3	-0.27397642
124	0x3c79a85f	0.015237897
125	0xbe8c25b4	-0.27372515
126	0x3f21300d	0.62963945
127	0x3ec85032	0.39123684
128	0x3ed80ea3	0.42198667
129	0x3f477908	0.77919054
130	0x3f10c0d6	0.56544244
131	0x3e8b1292	0.27162606
132	0x3dd91223	0.105991624
133	0x3eef9f44	0.46801198
134	0x3e8b9ed8	0.27269626
135	0xbd1a69da	-0.037698604
136	0x3ee700bc	0.45117748
137	0xbe9cab26	-0.30599326
138	0x3e618763	0.22024302
139	0x3d470ad0	0.048594296
140	0x3eb2250e	0.34793895
141	0xbe824798	-0.25445247
142	0xbdb64daf	-0.08901536
143	0x3d8bb119	0.06820888
144	0xbdc685f4	-0.09693518
145	0x3ddc8fdb	0.10769626
146	0x3ecccd7a	0.40000516
147	0xbe854989	-0.26032665
148	0xbd9f3113	-0.07773032
149	0x3e93d62f	0.28874347
150	0xbdc72918	-0.09724635
151	0xbe97744b	-0.29580912
152	0x3e0c7653	0.13717012
153	0xbe771e99	-0.24132766
154	0xbe483ed8	-0.19555223
155	0x3e071bc0	0.1319418
156	0x3e512e93	0.20427923
157	0x3eaeac54	0.3411585
158	0xbd86b20a	-0.06576927
159	0xbbb6e560	-0.005581543
160	0x3dc6330d	0.09677706
161	0xbee9756e	-0.45597404
162	0x3e3836ab	0.17989604
163	0x3d708014	0.058715895
164	0xbdba18b4	-0.09086743
165	0x3debf89b	0.11522027
166	0xbe47a8fe	-0.19498059
167	0xbf0dca5c	-0.553869
168	0x3eed7e53	0.4638544
169	0x3dd797c3	0.10526993
170	0xbe831395	-0.25600877
171	0xbde78f13	-0.11306586
172	0xbd1c74a3	-0.03819717
173	0x3d9e65b3	0.07734241
174	0xbec58648	-0.3857901
175	0xbed2eadd	-0.4119481
176	0x3ebeb38a	0.37246352
177	0x3b2f6082	0.0026760404
178	0xbe23e278	-0.1600436
179	0xbd818d63	-0.063257955
180	0xbe847816	-0.25872868
181	0xbd13ed68	-0.03611508
182	0x3ee2901b	0.4425057
183	0xbe99497b	-0.29938874
184	0xbe85e94d	-0.26154557
185	0x3efff7a2	0.49993616
186	0xbe67bcd5	-0.22630627
187	0xbec5a0d0	-0.38599253
188	0xbd5bb4a2	-0.05363906
189	0xbd27654e	-0.040868096
190	0xbd58b548	-0.05290726
191	0xbc7732e2	-0.015087815
192	0xbebccdc3	-0.36875734
193	0xbf41f7df	-0.75768846
194	0xbef32014	-0.4748541
195	0xbe5a0942	-0.21292594
196	0xbf160ca6	-0.5861305
197	0x3debe009	0.11517341
198	0xbe927355	-0.28603616
199	0x3e54232f	0.20716546
200	0x3e31e9ff	0.17374419
201	0x3db4b1d6	0.08822982
202	0xbe521fde	-0.20519969
203	0xbded25ae	-0.115794525
204	0x3e50b101	0.20380022
205	0xbe16f1b5	-0.14740641
206	0xbe22fad6	-0.15915999
207	0xbed54c1b	-0.41659626
208	0x3eaa7230	0.33290243
209	0x3e0ac9bd	0.1355352
210	0xbed8218e	-0.422131
211	0xbdc9c688	-0.0985232
212	0x3e1c3b4d	0.15256996
213	0x3da74404	0.0816727
214	0xbd3ae86b	-0.045631807
215	0x3ea0663d	0.31328002
216	0xbdfc1a37	-0.123096876
217	0x3ec54b9c	0.38534248
218	0x3f6a3c32	0.914981
219	0xbe9a44fd	-0.3013076
220	0xbe8e0d40	-0.27744484
221	0x3dd2e946	0.102983996
222	0x3d94f17b	0.07272621
223	0x3e49528c	0.19660395
224	0x3eeef15c	0.46668518
225	0xbf85b03a	-1.0444405
226	0xbe023689	-0.12716116
227	0x3e303811	0.17208888
228	0xbf3c8409	-0.7363897
229	0xbeb95099	-0.36194304
230	0x3d70ee38	0.058820933
231	0xbe92f9e7	-0.28706285
232	0xbd9ccf42	-0.07656719
233	0x3ee998e9	0.45624474
234	0xbe8b9ccd	-0.27268067
235	0xbe85b3b6	-0.2611367
236	0xbea2819f	-0.31739518
237	0xbebb402d	-0.365724
238	0xbf454d4a	-0.7707106
239	0xbe902ef2	-0.28160816
240	0xbe4b770e	-0.19869635
241	0xbf063c6e	-0.5243596
242	0xbe847aa0	-0.25874805
243	0x3da7abe5	0.08187083
244	0x3e0113ab	0.12605159
245	0xbd09f0a9	-0.033676777
246	0x3e111841	0.14169408
247	0x3c795373	0.01521765
248	0xbe0d66f2	-0.13808802
249	0xbd52e086	-0.051483653
250	0x3e147b8b	0.14500253
251	0xbd977aba	-0.07396455
252	0x3e44c198	0.19214475
253	0x3ea6ad52	0.32554108
254	0xbe8680ef	-0.26270244
255	0x3e96dfef	0.29467723

backbone.4.bias f4 [32]
0	0xbde86f95	-0.113494076
1	0xbe2ec28b	-0.170664
2	0x3ed38246	0.41310328
3	0xbd9fed10	-0.07808888
4	0x3e826a17	0.25471565
5	0xbdc53b15	-0.0963041
6	0xbb603314	-0.0034210132
7	0x3cac4556	0.021029156
8	0x3d70ec1b	0.058818918
9	0xbe19385f	-0.1496291
10	0x3e299e62	0.16564324
11	0xbd968342	-0.07349254
12	0x3da620a6	0.08111696
13	0xbe01130e	-0.12604925
14	0x3e06f620	0.13179827
15	0xbd9cf989	-0.076647826
16	0x3e31c9b9	0.17362107
17	0x3e5085eb	0.20363586
18	0xbe6d2527	-0.23158704
19	0xbba34851	-0.004982986
20	0xbd9718e8	-0.07377797
21	0x3bb9aca0	0.0056663305
22	0x3dd75d6c	0.10515866
23	0x3e80172b	0.25017676
24	0xbcb0d586	-0.02158619
25	0x3d89c9cd	0.067279436
26	0x3d95a56a	0.07306941
27	0xbc14157f	-0.009038328
28	0xbbac9fa9	-0.0052680564
29	0x3f1db7b3	0.6160843
30	0x3d74246f	0.05960506
31	0x3db59707	0.08866697

backbone.5.weight f4 [32]
0	0x3f3101a2	0.69143116
1	0x3f18668c	0.59531474
2	0x3f520f7f	0.82054895
3	0x3f07f0f8	0.53102064
4	0x3f7bc3e8	0.98345804
5	0x3f8f1c53	1.1180519
6	0x3f8bcaee	1.0921304
7	0x3f3f623c	0.7475927
8	0x3f87450e	1.0567949
9	0x3fa9f8f7	1.3279103
10	0x3f0924ad	0.5357159
11	0x3f26fd69	0.65230423
12	0x3fbd3564	1.4781919
13	0x3f9db45d	1.2320668
14	0x3f4274cd	0.75959474
15	0x3f6eda43	0.9330179
16	0x3f12c358	0.5732932
17	0x3f58693c	0.84535575
18	0x3f8000ce	1.0000246
19	0x3f3e306a	0.74292624
20	0x3fb07afd	1.3787533
21	0x3f74e6c0	0.95664597
22	0x3f6f66a4	0.9351599
23	0x3f8554ae	1.0416467
24	0x3f8eab8b	1.1146101
25	0x3f239af9	0.63908345
26	0x3f54f03e	0.8317908
27	0x3f6e0853	0.9298145
28	0x3f0968c7	0.536755
29	0x3f9b8ef0	1.2152996
30	0x3f95c89e	1.1701849
31	0x3f935ad5	1.1512095

backbone.5.bias f4 [32]
0	0xbf903d5e	-1.1268728
1	0xbf0e9c71	-0.5570746
2	0xbea48534	-0.32132876
3	0xbf0db781	-0.5535813
4	0xbe25b3de	-0.16181895
5	0xbecee7c1	-0.4041119
6	0xbec94606	-0.39311236
7	0xbfa8afed	-1.3178688
8	0xbf592d27	-0.8483452
9	0xbf972bdd	-1.1810261
10	0xbf1def9a	-0.6169373
11	0xbec7cd30	-0.39023733
12	0xbf3c12cd	-0.7346619
13	0xbf36c6d5	-0.71397144
14	0xbe7501a5	-0.23926409
15	0xbe965cfd	-0.2936782
16	0xbf6068ae	-0.8765973
17	0xbe707ab5	-0.23484309
18	0xbea57a03	-0.3231965
19	0xbf1a81b8	-0.60354185
20	0xbf5b6a2a	-0.8570887
21	0xbf23c5fc	-0.63973975
22	0xbed9bc0b	-0.42526278
23	0xbf293299	-0.6609283
24	0xbef4ce46	-0.47813624
25	0xbf2128b1	-0.62952715
26	0xbeb69fa5	-0.35668674
27	0xbf0c9560	-0.5491543
28	0xbfc264b4	-1.5186982
29	0xbe8ddc35	-0.27707067
30	0xbef70567	-0.4824631
31	0xbea8508e	-0.32873958

backbone.5.running_mean f4 [32]
0	0x3d8bc7e6	0.06825237
1	0xc042d807	-3.0444353
2	0xc065d017	-3.5908258
3	0xbff3e7b0	-1.905508
4	0xc0e6f8ac	-7.2178555
5	0xc0710f38	-3.7665539
6	0xbf060c38	-0.52362394
7	0x3feee81b	1.8664583
8	0xbed456e6	-0.41472548
9	0xbff23b0c	-1.892427
10	0xbfc29a7c	-1.5203395
11	0xc01fe344	-2.4982462
12	0xbfb2ca2b	-1.3967947
13	0xc01d992f	-2.4624746
14	0xc0187a7a	-2.3824754
15	0xc05b5912	-3.4273114
16	0xc01f54ad	-2.4895432
17	0xc06be693	-3.6859481
18	0xc0892f24	-4.2870045
19	0xc03b6f6a	-2.9286752
20	0xc0347045	-2.8193524
21	0xc0121c3f	-2.282974
22	0xbfd495fe	-1.6608274
23	0xc00d7c70	-2.21072
24	0xc0091da5	-2.1424344
25	0xc005393e	-2.0816188
26	0xc0a4a60c	-5.1452694
27	0xc07ecddd	-3.981315
28	0x3f3de85b	0.7418267
29	0xc00bb056	-2.1826377
30	0xc06de16c	-3.7168837
31	0xc08a389f	-4.3194118

backbone.5.running_var f4 [32]
0	0x40224f58	2.5360928
1	0x40f3f7db	7.624006
2	0x4124d346	10.30158
3	0x40951b06	4.6595488
4	0x4149606a	12.586039
5	0x41276d07	10.464118
6	0x4107065b	8.439052
7	0x40a8391e	5.2569723
8	0x40e87d96	7.2653303
9	0x411f823a	9.969294
10	0x4094e7bd	4.6532884
11	0x40d3bef0	6.617058
12	0x41770e8f	15.441054
13	0x4140c422	12.047884
14	0x4121fb08	10.123787
15	0x41318452	11.094805
16	0x4083d098	4.119213
17	0x4111ae63	9.105075
18	0x4140ee29	12.058145
19	0x41304d7c	11.018917
20	0x4137a323	11.477328
21	0x415adbd0	13.678665
22	0x411e1520	9.880157
23	0x412bf267	10.74668
24	0x413ed1c5	11.926213
25	0x40b5f869	5.6865735
26	0x40bc1f02	5.878785
27	0x4148e418	12.555687
28	0x407399f4	3.8062716
29	0x41566d12	13.4016285
30	0x4129ceea	10.613016
31	0x414d408d	12.828259

backbone.8.weight f4 [64, 32, 3, 3]
0	0x3ef61002	0.48059088
1	0xbe438bdc	-0.19096321
2	0xbe8807b8	-0.2656839
3	0x3d570865	0.05249824
4	0xbe6d70e7	-0.231876
5	0xbd9c60a2	-0.07635619
6	0xbe673cff	-0.22581862
7	0xbdf1b928	-0.11802894
8	0xbe227877	-0.15866266
9	0xbe43dd90	-0.19127488
10	0x3e1e29bc	0.15445608
11	0x3cdeaf71	0.027183266
12	0x3e3a9c1b	0.18223612
13	0x3ebc5593	0.36784038
14	0x3e962d7c	0.29331577
15	0x3dccf746	0.10008101
16	0x3eab892d	0.33503094
17	0x3c843e26	0.016142916
18	0x3e99bf95	0.30028978
19	0xbda67874	-0.08128443
20	0xbd852aac	-0.0650228
21	0x3e2a89df	0.16654156
22	0x3e85c25b	0.26124844
23	0x3e09ce12	0.13457516
24	0x3e931819	0.28729323
25	0x3e2849eb	0.16434447
26	0xbdfab11d	-0.12240813
27	0x3e2eddc8	0.1707679
28	0x3e9affc4	0.3027326
29	0x3e1371bc	0.14398855
30	0x3d890056	0.06689517
31	0x3d9d0258	0.07666463
32	0x3d232a79	0.039835427
33	0x3e348820	0.17630053
34	0x3d5af1a5	0.053453106
35	0xbc9a11c5	-0.018807301
36	0x3ef0a15c	0.46998107
37	0x3dfd1b5e	0.123587355
38	0xbd84f4d3	-0.06492009
39	0x3ea10f0a	0.31456786
40	0x3acb939a	0.001553166
41	0x3dd90920	0.105974436
42	0x3e9c2af0	0.3050151
43	0xbd54f128	-0.051987797
44	0x3d8ebd2f	0.06969678
45	0x3ec94f82	0.39318472
46	0x3efed726	0.4977352
47	0x3f354b97	0.70818466
48	0x3c36af2d	0.011150164
49	0xbdcc77c8	-0.09983784
50	0x3e66baa9	0.22532143
51	0xbc7b6f94	-0.0153464265
52	0xbe20c9b9	-0.15701951
53	0xbf01a931	-0.5064879
54	0x3e358c83	0.17729382
55	0x3eec4f54	0.46154273
56	0x3f2e4a80	0.6808243
57	0xbd21f386	-0.039538883
58	0x3e68b4e1	0.2272525
59	0x3e5e4bab	0.21708553
60	0xbe241d7b	-0.16026871
61	0x3e284b90	0.16435075
62	0xbed66cf9	-0.41880015
63	0xbdbc95e7	-0.09208279
64	0x3dc3bd0d	0.09557543
65	0x3e50d4c5	0.20393665
66	0xbe186c9f	-0.14885186
67	0x3cdc3217	0.026879353
68	0x3e67bc92	0.22630528
69	0x3d1208ce	0.035652928
70	0x3c9c7fbb	0.019103875
71	0x3d924abf	0.07143163
72	0xbd0949af	-0.033517536
73	0x3e961b1f	0.29317567
74	0x3dfc39e5	0.1231573
75	0x3d4d5e1b	0.050138574
76	0x3eaea600	0.34111023
77	0x3eb4fe77	0.3535039
78	0xbdaa52be	-0.08316563
79	0x3e248b45	0.16068752
80	0x3ec2ef8b	0.38073382
81	0xbdaed64f	-0.0853697
82	0x3f97dbb7	1.1863927
83	0x3f97ac13	1.1849388
84	0xbf0558c8	-0.52088594
85	0xbe39ffd6	-0.18164
86	0x3dbd154b	0.09232577
87	0xbee3cbf6	-0.44491547
88	0xbdae8bc8	-0.08522755
89	0xbe63aa13	-0.22232847
90	0x3d2475b4	0.040151313
91	0xbd789d05	-0.06069662
92	0x3d9270e1	0.07150436
93	0xbc51c85e	-0.012804119
94	0xbe21ab0e	-0.15787908
95	0x3de9ced0	0.114163995
96	0xbc8218ef	-0.01588103
97	0xbd8684a5	-0.06568269
98	0xbe4e196c	-0.20126885
99	0xbd63c453	-0.05560715
100	0x3e66dc15	0.22544892
101	0x3d30a44b	0.043125432
102	0xbe38d6d1	-0.18050696
103	0xbca5ff28	-0.02026327
104	0x3ed93d4a	0.42429572
105	0xbe4fcf28	-0.20293868
106	0xbe98afcb	-0.2982162
107	0x3ea24509	0.31693295
108	0x3eaa673f	0.33281896
109	0xbdb18d5b	-0.086695395
110	0xbf379c58	-0.71722937
111	0x3ea2e724	0.3181697
112	0x3e8cba8c	0.27486074
113	0xbe721c0c	-0.23643512
114	0x3f2a5ba2	0.6654607
115	0x3f55522d	0.83328515
116	0x3f10ecdf	0.56611437
117	0x3ecc8abe	0.39949602
118	0x3d6b680e	0.05747228
119	0x3dc89252	0.097935334
120	0x3ea31d59	0.31858328
121	0x3e47c70a	0.19509521
122	0x3e36bfe0	0.17846632
123	0x3f801211	1.0005513
124	0x3f251a2a	0.6449305
125	0x3f43e64d	0.76523286
126	0xbea180d6	-0.31543607
127	0xbefb943b	-0.49136528
128	0xbe57ad75	-0.21062262
129	0x3d49e2c3	0.049288522
130	0xbdfe0977	-0.12404149
131	0xbd0a37d1	-0.033744637
132	0xbca8f90d	-0.02062657
133	0xbe01e28a	-0.12684074
134	0xbe5578af	-0.20846818
135	0xbe79cb19	-0.24393882
136	0xbe1a1977	-0.15048777
137	0xbee6585e	-0.44989294
138	0xbd299b33	-0.041407775
139	0x3ce25983	0.027630573
140	0x3d3b5305	0.04573347
141	0x3e6d15fc	0.23152918
142	0x3cb9399b	0.022610476
143	0xbdc15017	-0.09439104
144	0x3f04c78d	0.5186699
145	0x3e94fdca	0.29099876
146	0x3f3da61a	0.74081576
147	0x3e224223	0.15845542
148	0x3e6ef5a2	0.23335889
149	0x3dc8f8b7	0.098130636
150	0x3d15ba79	0.036554787
151	0x3e6de58a	0.23232093
152	0xbdd1eabf	-0.102498524
153	0xbea52061	-0.32251266
154	0xbe5b4a1a	-0.21414986
155	0xbed4fcc5	-0.41599098
156	0xbd65e55d	-0.05612694
157	0xbed78726	-0.42095298
158	0xbe176fb6	-0.14788708
159	0xbdd3f46e	-0.10349356
160	0xbeb76585	-0.3581964
161	0xbebb8c42	-0.36630446
162	0xbdf069db	-0.1173894
163	0xbedebfb0	-0.4350562
164	0xbd2cb8af	-0.042168316
165	0xbee8b36f	-0.45449397
166	0xbef45e84	-0.4772836
167	0xbe22ce27	-0.15898953
168	0x3ebca352	0.36843354
169	0x3e6b924f	0.23005031
170	0x3ee71e83	0.45140466
171	0xbf085f3b	-0.5327031
172	0xbf140af4	-0.57829213
173	0xbe5abed1	-0.21361853
174	0xbeb17c47	-0.3466513
175	0xbf06d40c	-0.5266731
176	0xbeb340a6	-0.3501026
177	0xbd2759e5	-0.040857214
178	0xbf42e0a6	-0.76124036
179	0xbf1fef97	-0.6247496
180	0xbf6713ae	-0.90264404
181	0xbf89bcf8	-1.0760794
182	0xbf28ffdd	-0.66015416
183	0x3cd38e63	0.025824731
184	0x3e886170	0.2663684
185	0xbbaf23b3	-0.005344832
186	0x3f1f3cc1	0.6220208
187	0x3ee4f344	0.44716847
188	0x3ee6d610	0.45085192
189	0x3d583333	0.052783202
190	0xbef04c69	-0.46933296
191	0xbf310887	-0.69153637
192	0xbe4cd490	-0.20002961
193	0x3d30edfe	0.043195717
194	0x3e4d2260	0.20032644
195	0x3e966fee	0.2938227
196	0xbc04a364	-0.008095596
197	0x3f20c24e	0.62796485
198	0x3e29363c	0.16524595
199	0x3dd9fa70	0.1064347
200	0x3e2e231e	0.17005584
201	0x3f001b0b	0.50041264
202	0x3edf7096	0.43640584
203	0x3cbc73fa	0.02300452
204	0x3e15240c	0.14564532
205	0xbe9bdc25	-0.30441394
206	0xbe261712	-0.16219738
207	0x3e7aab6b	0.24479453
208	0x3eac354d	0.33634415
209	0x3e95c304	0.29250348
210	0xbc958d2d	-0.018255794
211	0x3df5d6cc	0.1200386
212	0xbe762ced	-0.24040575
213	0x3e0c07fb	0.1367492
214	0x3e03a4e2	0.12855867
215	0x3e1d15af	0.15340303
216	0xbddc707a	-0.10763641
217	0x3e052a7d	0.13004489
218	0x3ddbd6eb	0.10734352
219	0x3eb29964	0.34882653
220	0x3e46e24b	0.19422261
221	0x3d523bb1	0.051326457
222	0x3ef379e5	0.47553936
223	0x3ddf7c51	0.10912383
224	0x3e9c68a6	0.3054859
225	0x3e975237	0.29554912
226	0x3ecf623f	0.40504643
227	0x3eb72340	0.3576908
228	0xbe620bde	-0.2207484
229	0xbe4d7450	-0.20063901
230	0xbea7ea98	-0.32796168
231	0x3e3af705	0.18258293
232	0x3d2c7d61	0.04211176
233	0xbe3b2951	-0.1827748
234	0xbc0a5541	-0.008443178
235	0x3e1a9555	0.15096028
236	0x3da31ee0	0.07964873
237	0xbb7f92c5	-0.0038997394
238	0x3daf8902	0.08571054
239	0xbd57fd52	-0.05273182
240	0xbe59c39c	-0.21266025
241	0xbdb36b00	-0.08760643
242	0x3e07c988	0.13260472
243	0xbce05af8	-0.027387127
244	0xbde7f435	-0.11325876
245	0x3e2c59e4	0.16831166
246	0x3cfeda8a	0.031110067
247	0xbdd93f5b	-0.10607787
248	0xb90d029f	-0.00013447784
249	0xbe2f2c10	-0.17106652
250	0xbe97f9dc	-0.29682815
251	0xbeb53dc3	-0.35398683
252	0x3f06c7d6	0.52648675
253	0xbe5d0d22	-0.21587041
254	0xbe31a6d5	-0.17348798
255	0x3e168614	0.14699584

backbone.8.bias f4 [64]
0	0x3e65ea7c	0.2245273
1	0xbebbeec0	-0.3670559
2	0xbeaaad67	-0.3333542
3	0x3f0e91bf	0.5569114
4	0xbef96046	-0.48706263
5	0x3e35d102	0.17755511
6	0x3db6939a	0.089148715
7	0x3e5c1f45	0.21496303
8	0x3de909e0	0.11378837
9	0x3e05d37a	0.13068953
10	0x3e00157b	0.12508194
11	0x3e6cf9b0	0.23142123
12	0xbea87e16	-0.32908696
13	0xbe23d10c	-0.15997714
14	0x3e9275cc	0.28605497
15	0x3e097869	0.13424839
16	0x3de270aa	0.11056645
17	0x3e627af6	0.22117218
18	0xbe8f49d5	-0.27986017
19	0x3d4b6717	0.04965886
20	0x3e08171d	0.13290067
21	0x3e44420a	0.19165817
22	0x3ebc1264	0.3673278
23	0xbcdcf49f	-0.026972113
24	0x3eab9f74	0.3352009
25	0xbea86583	-0.32889947
26	0xbeda5892	-0.426457
27	0x3e477019	0.19476356
28	0x3d927385	0.0715094
29	0x3e5a5b88	0.21323979
30	0x3e273f26	0.16332683
31	0xbe718596	-0.23586115
32	0xbf3cf7da	-0.7381569
33	0x3ca551f2	0.020180676
34	0x3ec9a9bf	0.39387318
35	0x3e196d7c	0.14983171
36	0x3e84172c	0.2579893
37	0xbe753af2	-0.23948267
38	0xbf334e01	-0.700409
39	0xbe12ddfc	-0.14342493
40	0x3e13fc9f	0.14451836
41	0x3de579b3	0.11204853
42	0x3e4ee218	0.20203435
43	0x3e294f91	0.16534258
44	0xbf36a3f0	-0.713439
45	0x3cd65d10	0.026167423
46	0x3e9906cc	0.29887998
47	0x3ebf763a	0.37394887
48	0x3eb2341f	0.3480539
49	0x3e02827c	0.12745088
50	0x3e30e610	0.17275262
51	0x3e40d7cc	0.1883232
52	0x3d96e606	0.07368092
53	0x3e5baf46	0.2145358
54	0x3d88a7d7	0.06672638
55	0x3eb00be1	0.34384063
56	0xbeb58fe9	-0.35461357
57	0x3e1a4fce	0.15069506
58	0x3dbb7974	0.09154025
59	0x3e9f69e9	0.3113549
60	0x3eac4145	0.33643547
61	0x3e453c06	0.19261178
62	0xbed27006	-0.41101092
63	0x3e0823ee	0.13294956

backbone.9.weight f4 [64]
0	0x3f1d1346	0.61357534
1	0x3f9e2615	1.2355372
2	0x3fa57b1f	1.2928199
3	0x3f717605	0.9432071
4	0x3f9e72ae	1.2378747
5	0x3f48a0b3	0.7837021
6	0x3f8b5380	1.0884857
7	0x3f3c297b	0.73500794
8	0x3f6fdae1	0.9369336
9	0x3f57db32	0.8431884
10	0x3f514af1	0.81754977
11	0x3f549e15	0.83053714
12	0x3f933f92	1.1503775
13	0x3f9199ba	1.1375039
14	0x3f367d2a	0.71284735
15	0x3f61dade	0.8822459
16	0x3f2b1b2b	0.6683833
17	0x3f5b4589	0.8565298
18	0x3f87320c	1.0562148
19	0x3f639fed	0.889159
20	0x3f6c9d6b	0.924277
21	0x3f5c7397	0.86113876
22	0x3f53cdce	0.8273591
23	0x3fb3b0be	1.4038312
24	0x3f5fb042	0.87378323
25	0x3f935716	1.1510952
26	0x3f9e28a6	1.2356155
27	0x3f3cea3c	0.73794913
28	0x3f2f08db	0.6837289
29	0x3f525622	0.8216268
30	0x3f3334ed	0.70002633
31	0x3f8fe0bd	1.124046
32	0x3fb1a61d	1.3878819
33	0x3f7dfaec	0.99211
34	0x3f61d5f0	0.8821707
35	0x3f4b07a6	0.79308546
36	0x3f422d28	0.7585015
37	0x3fbaeba5	1.4603163
38	0x3fbc8e34	1.4730897
39	0x3fce7340	1.6128922
40	0x3f5b169a	0.8558136
41	0x3f3d3026	0.73901594
42	0x3f4d7aa4	0.8026526
43	0x3f27a158	0.65480566
44	0x3fa6a364	1.3018613
45	0x3f2d0f11	0.67601115
46	0x3f57726a	0.84158957
47	0x3f35068e	0.70713127
48	0x3f3e8c31	0.74432665
49	0x3f4096a1	0.7522984
50	0x3f58170a	0.84410155
51	0x3f40834c	0.75200343
52	0x3f2d5618	0.67709494
53	0x3f50559c	0.8138063
54	0x3f26733a	0.6501957
55	0x3f5834af	0.8445539
56	0x3f906a57	1.1282452
57	0x3f1bc4d7	0.6084723
58	0x3f102055	0.56299335
59	0x3f4d0f7a	0.8010174
60	0x3f791c69	0.97308975
61	0x3f4e4bb9	0.80584294
62	0x3fa2ec8b	1.2728437
63	0x3f5782c0	0.84183884

backbone.9.bias f4 [64]
0	0xbf774a3d	-0.96597654
1	0xbeced604	-0.40397656
2	0xbeca5436	-0.39517373
3	0xbecf9727	-0.40545008
4	0xbefcae9f	-0.49351975
5	0xbf76e43e	-0.9644202
6	0xbf334e36	-0.70041215
7	0xbf7786ee	-0.9669026
8	0xbf3a4736	-0.7276491
9	0xbf38d5af	-0.72201055
10	0xbf6ad55c	-0.9173181
11	0xbf29155b	-0.6604821
12	0xbeefba92	-0.4682203
13	0xbf2db949	-0.6786085
14	0xbf30d7e2	-0.6907941
15	0xbf565e31	-0.83737475
16	0xbf58c20c	-0.8467109
17	0xbf4a270d	-0.78965837
18	0xbed2c1f9	-0.41163614
19	0xbf36a586	-0.7134632
20	0xbf39375d	-0.723501
21	0xbf441c64	-0.7660582
22	0xbef0df20	-0.4704523
23	0xbf435524	-0.7630179
24	0xbf63c42a	-0.889712
25	0xbedfbfc4	-0.43700993
26	0xbeb7006e	-0.35742515
27	0xbefae924	-0.49005997
28	0xbf4327d3	-0.7623264
29	0xbf96bdb2	-1.177664
30	0xbf5d3696	-0.86411417
31	0xbee97770	-0.45598936
32	0xbe9662f4	-0.2937237
33	0xbeff3568	-0.49845433
34	0xbf115f98	-0.5678649
35	0xbf8fc61b	-1.1232332
36	0xbf67e7fa	-0.90588343
37	0xbf426ab5	-0.7594407
38	0xbe88ee97	-0.2674453
39	0xbfb44cb9	-1.4085914
40	0xbedec328	-0.43508267
41	0xbf74ca06	-0.95620763
42	0xbf4744c4	-0.77839303
43	0xbf824af3	-1.0179123
44	0xbf0d2480	-0.5513382
45	0xbf440d64	-0.7658293
46	0xbf31cdf5	-0.6945489
47	0xbf154db4	-0.5832169
48	0xbf52840d	-0.82232744
49	0xbf89d448	-1.0767908
50	0xbf9e411a	-1.2363617
51	0xbf4d7b15	-0.80265933
52	0xbf43ebd2	-0.7653171
53	0xbf53297e	-0.8248519
54	0xbf359b13	-0.7093975
55	0xbf52d5fc	-0.82357764
56	0xbf11dfeb	-0.56982297
57	0xbf5cf45b	-0.86310357
58	0xbf74fc25	-0.9569724
59	0xbf72b296	-0.9480375
60	0xbf36adee	-0.71359146
61	0xbf41058d	-0.75399095
62	0xbebc6fee	-0.36804146
63	0xbf402e7e	-0.7507094

backbone.9.running_mean f4 [64]
0	0x3f9b67af	1.2141017
1	0xbec3aa81	-0.38216022
2	0xbf7a7dff	-0.97848505
3	0xbfb52c8f	-1.4154223
4	0x3ea63fbc	0.324705
5	0x3dbf23cf	0.09333002
6	0x3f8a689f	1.0813178
7	0xbecd620e	-0.40113872
8	0x3f38e8a2	0.7222997
9	0x3facdbdc	1.3504596
10	0x3fa0651e	1.2530859
11	0xbf25cc51	-0.6476489
12	0x3e654053	0.22387819
13	0x3f32eb1f	0.69890016
14	0x3f744a90	0.95426273
15	0x3be87ea7	0.0070951763
16	0x3fe7fcf4	1.812407
17	0xbe707ea2	-0.23485807
18	0xbef24758	-0.47320056
19	0x3faa2e00	1.3295288
20	0x3f978d31	1.1839963
21	0x3f01ca95	0.5069974
22	0xbf1b8f2c	-0.6076534
23	0x3f72cebe	0.94846714
24	0x3f012b0c	0.5045631
25	0xbf21c40c	-0.6318977
26	0xbfa46a0c	-1.2844863
27	0xbf360d69	-0.7111421
28	0xbf81f82a	-1.0153859
29	0x3f274030	0.6533232
30	0x3dad90e0	0.08474898
31	0xbf3cf532	-0.7381164
32	0x3fedf9ca	1.8591855
33	0x40067903	2.101136
34	0x4011d858	2.2788296
35	0x3f24b16b	0.6433322
36	0x3e54a4ef	0.20766042
37	0x3da88d5f	0.082300894
38	0x4010f527	2.264963
39	0xbec96c30	-0.39340353
40	0xbf338efd	-0.7014006
41	0x3f4aa4ed	0.79157907
42	0xbf2a3057	-0.6648001
43	0x3ff598d9	1.918727
44	0xbf26edbe	-0.65206516
45	0x3fa08f4d	1.2543732
46	0xbf0e8994	-0.5567868
47	0xbecf5c56	-0.40500134
48	0x3f4e1249	0.8049665
49	0x3f95d017	1.1704129
50	0x3fba9167	1.4575623
51	0xbce3a653	-0.02778927
52	0xbf9d5737	-1.2292241
53	0x3f0bdac8	0.5463071
54	0xbe5e8e13	-0.21733885
55	0xbc4753af	-0.012165948
56	0x3ffe33cc	1.9859557
57	0x3fb1754c	1.3863921
58	0x3ff2a498	1.895648
59	0x3fe62752	1.798075
60	0xbf497d20	-0.7870655
61	0x3e59a820	0.21255541
62	0x3f5f0489	0.87116295
63	0x40056ddd	2.0848305

backbone.9.running_var f4 [64]
0	0x3ff20eeb	1.8910803
1	0x4001af69	2.0263312
2	0x3fe46a4b	1.7844938
3	0x40593668	3.3939457
4	0x3fdd1847	1.7273034
5	0x3ffa5e97	1.9560117
6	0x40565c26	3.3493743
7	0x40088607	2.1331804
8	0x40382d33	2.8777587
9	0x40274e6c	2.6141615
10	0x40296a09	2.6470969
11	0x4009472c	2.144969
12	0x3fdaff86	1.710923
13	0x3fd6bb85	1.6775976
14	0x40347d9a	2.820166
15	0x4007d767	2.122522
16	0x40858606	4.1726103
17	0x4004227d	2.064605
18	0x3ff7da53	1.9363502
19	0x405e932f	3.4777334
20	0x4013c8b2	2.3091245
21	0x3fc7eb25	1.5618635
22	0x409114c3	4.5337844
23	0x3fd95c74	1.698134
24	0x3fbc1d3a	1.4696419
25	0x4050fa1e	3.265266
26	0x4014c100	2.3242798
27	0x40734162	3.8008657
28	0x4026675b	2.6000583
29	0x402b4746	2.6762252
30	0x4017463e	2.3636622
31	0x401074bb	2.2571247
32	0x400892ce	2.1339602
33	0x400597e0	2.0873947
34	0x401539ad	2.3316453
35	0x4044018b	3.0625942
36	0x400010fb	2.0010364
37	0x40121e45	2.2830975
38	0x40047f54	2.0702715
39	0x40571821	3.3608477
40	0x40826808	4.075199
41	0x3feb132f	1.8365229
42	0x4002cbe0	2.0436935
43	0x401c594f	2.442951
44	0x403b6f74	2.9286776
45	0x404ef242	3.2335362
46	0x3fe073df	1.7535361
47	0x4059d556	3.403646
48	0x3fc9ae10	1.5756245
49	0x40079c02	2.118897
50	0x4046d7bc	3.1069174
51	0x3ff0d192	1.8813956
52	0x4052f3db	3.2961338
53	0x400776e0	2.1166306
54	0x401f5b8f	2.4899633
55	0x400210e9	2.032282
56	0x3fd99ae0	1.7000389
57	0x4021dc7a	2.5290818
58	0x4009802a	2.1484475
59	0x403368e8	2.803278
60	0x3ffe2f38	1.985816
61	0x40074b78	2.1139812
62	0x401b4523	2.4260948
63	0x40307b05	2.7575085

head.0.weight f4 [128, 64]
0	0xbe0425c7	-0.12905036
1	0xbe707c35	-0.23484881
2	0xbebdcebc	-0.37071788
3	0x3e65e85d	0.22451921
4	0xbe447572	-0.19185427
5	0x3e1e47cf	0.1545708
6	0xbe59f291	-0.21283938
7	0x3e348ea2	0.17632535
8	0xbdf1021a	-0.11767979
9	0xbe04b8d5	-0.12961133
10	0x3da5d7c9	0.080977984
11	0x3e63c86c	0.22244424
12	0xbe6b4ee7	-0.22979318
13	0xbe9d0579	-0.30668238
14	0x3da9a65c	0.08283684
15	0x3e840c23	0.2579051
16	0xbda0d59b	-0.07853242
17	0x3d93e2ad	0.07220969
18	0xbe615cb1	-0.22008015
19	0xbe3180f9	-0.17334355
20	0xbe0f5017	-0.13995396
21	0x3e174971	0.1477411
22	0xbd270305	-0.040774364
23	0xbef36ce9	-0.4754403
24	0x3e6d920f	0.23200248
25	0xbe0fe2c6	-0.14051351
26	0xbe7815be	-0.24227044
27	0x3d857d32	0.0651802
28	0x3d33ba37	0.04387876
29	0x3e8d633c	0.27614772
30	0x3d43c6af	0.0477969
31	0xbeb664b6	-0.3562371
32	0xbdc2c4a7	-0.09510165
33	0x3db96968	0.09053308
34	0x3e6250fb	0.22101204
35	0x3d547c9b	0.051876646
36	0x3e43c84b	0.19119374
37	0xbf05713d	-0.5212591
38	0x3cb1903f	0.021675227
39	0x3e6fe2e5	0.23426397
40	0xbcf9e9a5	-0.030506918
41	0xbd38fd88	-0.04516366
42	0x3e026ba3	0.12736373
43	0xbc777e5f	-0.015105813
44	0x3d0a226e	0.03372424
45	0xbd8d5825	-0.06901578
46	0x3df6baa9	0.12047321
47	0x3e2b118b	0.16705911
48	0x3e1ff325	0.15620096
49	0x3e362bea	0.1779019
50	0x3df490a1	0.11941648
51	0x3dfdc712	0.12391485
52	0xbe0a81e6	-0.13526115
53	0x3e783c9c	0.2424187
54	0xbd8e5c27	-0.069511704
55	0x3e6d884f	0.23196529
56	0xbea3255a	-0.31864434
57	0xbbd702d6	-0.0065616174
58	0x3d861221	0.065464266
59	0x3e3b931a	0.18317834
60	0x3e4583cf	0.19288562
61	0x3e4303bf	0.19044398
62	0xbe129961	-0.14316322
63	0xbe8ed73c	-0.27898586
64	0xbdf95630	-0.12174642
65	0xbe15a267	-0.14612733
66	0xbd069823	-0.032859933
67	0xbde4ebcd	-0.11177788
68	0xbbc0f3e3	-0.0058884486
69	0x3decc319	0.115606494
70	0x3dc754a3	0.0973294
71	0x3c78efbe	0.015193878
72	0xbd365ef9	-0.044524167
73	0xbdbe62b6	-0.09296171
74	0xbdea791b	-0.1144888
75	0xbc8274dd	-0.015924865
76	0xbd03eabf	-0.032206293
77	0xbe1c2ee9	-0.1525227
78	0xbda6fcc6	-0.081536815
79	0x3c9ee526	0.019396376
80	0x3c529d0f	0.0128548285
81	0xbdc8245c	-0.0977256
82	0x3c82d668	0.015971377
83	0x3ceea8aa	0.02913316
84	0xbd7d60a9	-0.06185976
85	0xbe00c8e5	-0.12576635
86	0xbdcb66a4	-0.099316865
87	0xbd85eee2	-0.06539704
88	0xbde66a52	-0.11250748
89	0xbd3d5013	-0.046218943
90	0xbd46788c	-0.048454806
91	0x3dcafa17	0.09910982
92	0x3d69839f	0.05701029
93	0x3db29b27	0.08720999
94	0xbd4bb2f4	-0.04973121
95	0xbcbbaab2	-0.022908542
96	0x3d374fde	0.0447539
97	0xbd35132f	-0.044207748
98	0xbe0383c7	-0.12843238
99	0xbcb224f7	-0.021746142
100	0x3d8076e8	0.062726796
101	0xbe196253	-0.14978914
102	0x3d0aedb8	0.033918113
103	0xbd6dc486	-0.058048747
104	0x3db46025	0.088074006
105	0xbc4b78fe	-0.0124189835
106	0x3dc6005d	0.09668038
107	0x3dcafd9d	0.09911654
108	0xbe165fe2	-0.14685014
109	0xbdadb1ad	-0.084811546
110	0xbd753c74	-0.059872106
111	0x3d9be452	0.07611908
112	0x3dcc19aa	0.099658325
113	0xbd67a342	-0.05655218
114	0x3c439b64	0.0119389035
115	0xbb7aa912	-0.0038247746
116	0x3c8b1cde	0.016981538
117	0xbd18a990	-0.037271082
118	0x3d62aa0e	0.055337958
119	0xbd271ada	-0.040797092
120	0xbd22542d	-0.039631058
121	0xbd894325	-0.0670226
122	0x3c955cce	0.01823273
123	0x3dd4e1f7	0.10394662
124	0x3d2703a6	0.040774964
125	0x3da8036a	0.08203776
126	0xbd7a4ef6	-0.06111046
127	0xbd320da1	-0.04347003
128	0x3ebb8ad9	0.3662937
129	0xbe22b02a	-0.15887514
130	0xbdb4abca	-0.08821829
131	0xbbe54e28	-0.0069978423
132	0xbeb9ab54	-0.36263525
133	0x3e17c39e	0.14820716
134	0x3ed37859	0.41302755
135	0x3eedc925	0.46442524
136	0x3e78e1f3	0.24304943
137	0x3e3a7e6e	0.18212292
138	0x3eac66e9	0.33672264
139	0xbd152262	-0.036409743
140	0xbe879cbc	-0.26486766
141	0xbdc89bf3	-0.0979537
142	0x3e8288a4	0.25494874
143	0x3e070868	0.131868
144	0x3efb2f02	0.49059302
145	0x3d3d6a36	0.04624387
146	0xbe1f616a	-0.15564504
147	0x3e97f8a7	0.29681894
148	0x3ef92e50	0.48668146
149	0x3d58c5db	0.052923065
150	0x3f138533	0.5762512
151	0x3e499b3e	0.19688126
152	0x3c3c6ebd	0.011501011
153	0xbf0c1af0	-0.54728603
154	0xbee971eb	-0.45594725
155	0x3ec6cc44	0.38827717
156	0x3f15d590	0.58528996
157	0x3d3b171d	0.04567634
158	0x3ec0f3c3	0.37685975
159	0xbec80013	-0.39062557
160	0xbedadbc6	-0.427458
161	0xbdaf72ae	-0.08566795
162	0x3df4126e	0.11917578
163	0x3e8ab32c	0.27089822
164	0x3d977888	0.073960364
165	0x3d273358	0.04082045
166	0xbe610b12	-0.21976879
167	0xbf1caad4	-0.61198163
168	0x3ee07566	0.43839568
169	0x3edf3d1a	0.43601304
170	0x3ded1cb2	0.11577739
171	0x3ead45c3	0.33842286
172	0x3d9c9698	0.07645911
173	0x3e812a04	0.25227368
174	0x3e8d9947	0.27656004
175	0x3e9346be	0.2876491
176	0x3e805e2c	0.25071847
177	0x3f173e90	0.5907984
178	0x3f03e2d2	0.51517975
179	0x3dcd4038	0.100220144
180	0x3ee5cbce	0.44882053
181	0x3ead849e	0.3389024
182	0x3ea98053	0.33105716
183	0x3e99d6bd	0.30046645
184	0xbe242415	-0.16029389
185	0x3e9400e1	0.2890692
186	0x3f0a01ab	0.53908795
187	0x3ed4b05f	0.4154081
188	0xbd64dd7d	-0.05587529
189	0x3d197164	0.037461653
190	0xbe93723a	-0.28798085
191	0x3eb3b5f9	0.35099772
192	0x3dba896a	0.09108241
193	0x3d142d9f	0.03617632
194	0xbddf55cd	-0.10905037
195	0xbcc1ba40	-0.023648381
196	0xbda1edb1	-0.07906664
197	0x3cf83fa6	0.030303787
198	0x3dafe91e	0.085893854
199	0x3dc58896	0.09645192
200	0x3d6176c8	0.05504492
201	0x3c9f7ac9	0.019467728
202	0x3d70ecce	0.058819585
203	0x3c10b0cb	0.008831213
204	0xba6bf514	-0.0009001058
205	0x3d9295b3	0.07157459
206	0x3d9ca433	0.07648506
207	0xbd074093	-0.033020567
208	0x3d4c0642	0.049810655
209	0xbd9df3fe	-0.077125534
210	0xbd6002e9	-0.054690275
211	0x3daa68a2	0.083207384
212	0xbd47fc76	-0.04882475
213	0x3d8a29a9	0.06746227
214	0x3db9dd2c	0.09075388
215	0xbda1299b	-0.07869264
216	0x3bd69d1c	0.0065494906
217	0xbda04eb2	-0.0782751
218	0xbd1cec6a	-0.0383114
219	0x3bd62bc1	0.0065359776
220	0xbdb4cda4	-0.08828285
221	0x3dcbb807	0.0994721
222	0x3dac89b2	0.08424701
223	0xbd12f567	-0.035878565
224	0xbe0907eb	-0.13381927
225	0xbde131fb	-0.10995861
226	0xbce3ef3d	-0.027824039
227	0xbcba6368	-0.022752479
228	0xbd9965c3	-0.07490113
229	0xbd76408d	-0.060120154
230	0xbdacb3dc	-0.08432743
231	0xbd996a5e	-0.07490991
232	0xbcbb91fb	-0.022896757
233	0xbd865569	-0.065592594
234	0xbd4676cf	-0.04845315
235	0xbcadda54	-0.021222271
236	0x3dba3962	0.09092976
237	0x39fd2c75	0.00048289043
238	0x3d437ca0	0.047726274
239	0xbd8d978c	-0.06913671
240	0x3daa2e5f	0.08309626
241	0xbda804d3	-0.08204045
242	0xbd905cfa	-0.07048984
243	0xbddf83d4	-0.10913816
244	0x3cce0793	0.025150096
245	0x3ad3b943	0.0016153235
246	0x3d83264f	0.06403791
247	0xbd996098	-0.07489127
248	0x3da1ebc6	0.07906298
249	0x3d11cfbf	0.035598513
250	0xbd84adac	-0.06478438
251	0xbc86ba91	-0.016446384
252	0xbdf3ed8b	-0.11910542
253	0x3c41bb63	0.011824462
254	0x3da9be3a	0.08288236
255	0xbd938599	-0.07203216

head.0.bias f4 [128]
0	0xbe070618	-0.13185918
1	0x3ca368be	0.019947406
2	0x3e423fd3	0.1896966
3	0xbc1a9f00	-0.009437323
4	0xbd8f4195	-0.06994931
5	0x3ac1f653	0.0014798142
6	0xbd82a50e	-0.06379138
7	0x3d8e6ae9	0.06953985
8	0x3a8da00c	0.0010805144
9	0x3baff2a0	0.0053694993
10	0xbcb3bf10	-0.021941692
11	0x3db60b4c	0.088888735
12	0x3d87d8f5	0.06633178
13	0xbe0fc8ea	-0.14041486
14	0xbcd07e4b	-0.025450846
15	0x3d11af18	0.035567373
16	0x3d7777d9	0.06041703
17	0x3d2a7b39	0.04162142
18	0xbd953312	-0.072851315
19	0xbcb1222e	-0.021622743
20	0xbe1dcb58	-0.154096
21	0x3d83fe4b	0.06444987
22	0x3d3595d5	0.044332344
23	0xbdd8ad19	-0.10579891
24	0x3d9b3611	0.07578672
25	0xba1bb295	-0.00059393916
26	0xbd5edfd9	-0.054412697
27	0xbd085bc1	-0.03329063
28	0x3d9dabcc	0.07698783
29	0x3ceeb9a5	0.029141257
30	0x3de956c2	0.11393501
31	0xbc63b2c4	-0.0138976015
32	0x3e3b1410	0.18269372
33	0xbe01a5c7	-0.12660895
34	0x3d135322	0.035967954
35	0xbd34248d	-0.04398017
36	0xbcfb7822	-0.030696932
37	0x3d7e97d9	0.062156532
38	0xbce829f0	-0.02834031
39	0xbdd1f242	-0.10251285
40	0xbce06867	-0.027393533
41	0x3e934acf	0.28768012
42	0xbc1d4099	-0.009597921
43	0x3e5254bb	0.20540135
44	0xbc5d1e0a	-0.013495931
45	0x3e25ec74	0.16203481
46	0x3d8060c1	0.06268454
47	0xbdecc470	-0.11560905
48	0x3d2ed18e	0.042680316
49	0xbd8c0367	-0.068365864
50	0xbcea4c26	-0.028600764
51	0xbe10f0a5	-0.14154299
52	0xbd12a8cd	-0.035805512
53	0x3d7f8082	0.062378414
54	0xbe0fa819	-0.14028968
55	0x3c350a94	0.011049885
56	0x3dae9095	0.085236706
57	0x3dc5f07f	0.096650116
58	0xbd97e128	-0.07415992
59	0x3e2f43aa	0.17115656
60	0xbd83c872	-0.06434716
61	0xbc50950a	-0.012730846
62	0xbdc1beef	-0.09460246
63	0x3905251b	0.00012697691
64	0xbe1508d9	-0.14554156
65	0x3e235cb3	0.1595333
66	0x3e3f4d2d	0.18681784
67	0x3d3cd3dd	0.046100486
68	0x3e3a498e	0.18192121
69	0xbd3b1acc	-0.045679852
70	0xbdc5bfbe	-0.096557125
71	0xbdf9e0d7	-0.12201088
72	0x3e17232d	0.14759512
73	0x3e83e739	0.25762346
74	0xbda36ef9	-0.07980151
75	0x3c00ffde	0.0078735035
76	0x3d190349	0.03735665
77	0x3e13d20b	0.14435594
78	0xbd8a5f94	-0.06756511
79	0xbdbd5a0a	-0.09245689
80	0x3d569d4c	0.052396104
81	0x3e4c7c41	0.19969274
82	0x3e833af3	0.25630912
83	0xbcf91186	-0.030403864
84	0x3c5aeb7c	0.013361808
85	0xbd432c80	-0.04764986
86	0x3d745eab	0.059660595
87	0xbd664990	-0.0562225
88	0x3e5ca375	0.21546729
89	0x3dc53d74	0.09630862
90	0xbdb4a0fc	-0.08819768
91	0x3dac61d0	0.08417094
92	0x3cbaa014	0.02278141
93	0xbc3859af	-0.011251851
94	0xbcc71453	-0.024301684
95	0xbd89c69e	-0.06727336
96	0xbdd2bf09	-0.10290343
97	0x3d14aabb	0.036295634
98	0x3e0bfd3a	0.13670817
99	0xbdd61981	-0.10454083
100	0x3d8c5795	0.068526424
101	0x3c660b5f	0.014040797
102	0x3db1642b	0.08661684
103	0xbd828e64	-0.06374815
104	0x3e08d741	0.13363363
105	0x3e621655	0.22078831
106	0xbdea4c77	-0.11440366
107	0xbcc54ee4	-0.02408547
108	0x3df2b14e	0.118502244
109	0x3c6d09bf	0.014467656
110	0x3ba328c5	0.0049792253
111	0x3d9827c7	0.07429462
112	0x3dc2cb2b	0.095114075
113	0x3ca7ff2f	0.020507423
114	0x3bf1961a	0.00737263
115	0x3db08bbd	0.08620403
116	0xbe015126	-0.12628612
117	0xbe1ef5a5	-0.15523393
118	0x3e6225d3	0.22084741
119	0x3cf8ffe7	0.030395461
120	0x3db5d099	0.088776775
121	0xbcc1a31a	-0.023637343
122	0x3d8d17df	0.06889319
123	0xbe06c241	-0.1316004
124	0x3d08971d	0.033347238
125	0xbd120c4a	-0.03565625
126	0x3e0b85d6	0.13625273
127	0xbcad21da	-0.021134306

head.3.weight f4 [2, 128]
0	0xbecdb39f	-0.40176103
1	0xbcee2061	-0.029068174
2	0xbf98a767	-1.1926087
3	0x3cd6d473	0.02622435
4	0x3d6f8a51	0.05848152
5	0xbab3ba48	-0.0013712132
6	0xbc8b33f1	-0.016992541
7	0xbf2126aa	-0.6294962
8	0xbd11a8e1	-0.035561446
9	0xbf4fa78c	-0.8111503
10	0xbd86377c	-0.065535516
11	0xbf4d5599	-0.80208737
12	0x3c8541a2	0.016266648
13	0x3d3bf850	0.045891106
14	0x3d37f4e1	0.04491127
15	0x3ba8392a	0.0051337676
16	0xbf2a06f6	-0.6641687
17	0x3c9febed	0.019521678
18	0xbf2a1ac8	-0.66447115
19	0x3d3200db	0.043457847
20	0xbbba764a	-0.0056903707
21	0xbf47fcd4	-0.7812016
22	0xbc597bb9	-0.013274127
23	0xbb65cccc	-0.0035064695
24	0x3d8ae7a6	0.06782465
25	0xbf27174d	-0.6526993
26	0x3cf7e720	0.030261576
27	0xbbc9209a	-0.0061379196
28	0x3f14350a	0.5789343
29	0x3c2f380c	0.010694515
30	0xbf15a316	-0.58451974
31	0xbd720061	-0.059082393
32	0xbf23d95e	-0.6400355
33	0xbd3c2f15	-0.04594334
34	0xbf1eecb5	-0.62079936
35	0xba938de2	-0.0011257494
36	0xbd28a0f6	-0.04116913
37	0xbd0be2c0	-0.034151793
38	0xbf5c3679	-0.8602062
39	0x3d6b498d	0.05744319
40	0x3d23052c	0.039799854
41	0xbf94811f	-1.1601905
42	0x3d62e4df	0.05539405
43	0xbf74b640	-0.9559059
44	0x3d8625d2	0.065501824
45	0xbf481535	-0.7815736
46	0xbf3f28a6	-0.746714
47	0x3daa2a76	0.0830888
48	0xbb82a6e4	-0.00398718
49	0x3d8610b6	0.06546156
50	0x3cd0dc26	0.0254956
51	0xbbe8b305	-0.007101419
52	0x3d37fc91	0.0449186
53	0xbf444c6d	-0.76679116
54	0x3d3972f1	0.045275632
55	0x3d790a63	0.06080092
56	0x3d31d504	0.04341604
57	0xbf47eea1	-0.78098494
58	0xbe66ff54	-0.22558337
59	0xbf17ad70	-0.5924902
60	0xbb7b0fff	-0.0038309095
61	0xbf42db75	-0.76116115
62	0x3d1d5ab2	0.038416572
63	0xbf571b1a	-0.8402573
64	0x3c99538a	0.018716592
65	0xbef6c507	-0.48197195
66	0xbf19ed43	-0.6012766
67	0x3c359349	0.011082479
68	0xbf2337e8	-0.6375718
69	0xbf04121b	-0.51590127
70	0xbd0adc56	-0.033901535
71	0xbce1972f	-0.02753791
72	0xbf01011e	-0.5039233
73	0xbf6a9129	-0.91627747
74	0x3d1e38f5	0.038628537
75	0xbf43b3a5	-0.7644599
76	0xbf434df5	-0.7629083
77	0xbf3e33ef	-0.74297994
78	0x3d095d42	0.033536203
79	0xbc25ff70	-0.010131702
80	0x3b22b310	0.0024825968
81	0xbf2db3d8	-0.67852545
82	0xbeff1dcd	-0.49827424
83	0xbe617903	-0.22018819
84	0xbf483497	-0.78205246
85	0x3b5856b9	0.0033010675
86	0xbc44ab07	-0.012003667
87	0xbd224a6f	-0.039621767
88	0xbf724c76	-0.9464792
89	0x3d370dff	0.044691082
90	0x3d7f1c4e	0.062282853
91	0xbf561c51	-0.8363696
92	0xbcbe9d7c	-0.023268454
93	0x3b59fcef	0.0033262332
94	0xbdb10852	-0.08644165
95	0x3c54c64d	0.012986732
96	0xbf42c507	-0.7608189
97	0x3c665f64	0.014060829
98	0xbf537011	-0.82592875
99	0x3d1200a7	0.035645153
100	0xbd16e1e4	-0.03683652
101	0x3da91c42	0.08257343
102	0xbee1ffd3	-0.4414049
103	0xbc57739e	-0.013150124
104	0xbf21600a	-0.6303717
105	0xbef7ea75	-0.48421064
106	0x3cce0217	0.02514748
107	0x3d74166a	0.05959169
108	0xbf502905	-0.8131259
109	0xbf149122	-0.58033955
110	0x3d24cd06	0.040234588
111	0xbf3f630c	-0.7476051
112	0xbf20b9ba	-0.62783396
113	0xbf69d574	-0.9134133
114	0x3d92e7ec	0.07173142
115	0xbf153851	-0.58289057
116	0x3c17de54	0.009269316
117	0x3d21e443	0.039524328
118	0xbf04b7b6	-0.5184282
119	0xbeed0dce	-0.46299595
120	0x3f1df9a0	0.6170902
121	0xbc827682	-0.01592565
122	0xbf225fea	-0.63427603
123	0xbf1206c2	-0.5704156
124	0xbf20efac	-0.6286571
125	0x3d3117fa	0.043235756
126	0x3f123389	0.57109886
127	0xbf1bcaff	-0.6085662
128	0x3ed7d06d	0.42151204
129	0xbd1a3c8d	-0.037655402
130	0x3f98ca44	1.1936727
131	0xbcfaa657	-0.030596895
132	0xbbf6bec0	-0.0075300634
133	0x3d57a9fb	0.05265234
134	0xbd9ae0d1	-0.075624116
135	0x3f3175c6	0.69320333
136	0xbd318859	-0.043342922
137	0x3f53cb33	0.8273193
138	0xbd46f864	-0.048576728
139	0x3f5d1502	0.8636018
140	0xbd9d93cb	-0.07694205
141	0xbc9dd5ed	-0.019267047
142	0x3c03f364	0.008053634
143	0xbc8b7a87	-0.017026199
144	0x3f290328	0.6602044
145	0x3d59c667	0.053167727
146	0x3f42bf22	0.76072896
147	0xbc2078fd	-0.009794471
148	0x3b2d63bb	0.002645715
149	0x3f3af440	0.73028946
150	0xbd914d10	-0.07094777
151	0x3d29405f	0.041321155
152	0x3c85d2b8	0.01633583
153	0x3f216e55	0.6305898
154	0x3dbc0296	0.09180181
155	0x3dc94bcc	0.0982891
156	0xbf229770	-0.63512325
157	0xbd80f5c2	-0.062968746
158	0x3ef653c0	0.4811077
159	0x3b88fa19	0.0041802046
160	0x3f2e7902	0.68153393
161	0x3d147c58	0.036251396
162	0x3f18b5c3	0.59652346
163	0xbc403498	-0.011731289
164	0x3d6d1514	0.05788143
165	0xbd83068c	-0.06397733
166	0x3f384a7e	0.71988666
167	0xbcc254d8	-0.023722097
168	0x3c4494c3	0.011998358
169	0x3f92914b	1.145059
170	0x3d3605b3	0.04443903
171	0x3f8520e4	1.0400662
172	0x3c5336cf	0.012891485
173	0x3f39a219	0.72512966
174	0x3f3cf002	0.7380372
175	0x3b4e07fa	0.003143786
176	0xbd42af06	-0.047530197
177	0x3d341244	0.043962732
178	0xbb41e258	-0.0029584374
179	0x3d77ece0	0.060528636
180	0xbcf8131e	-0.030282553
181	0x3f5c862f	0.8614225
182	0xbd52aea8	-0.051436096
183	0x3bed4cfd	0.0072418437
184	0xbd3243d6	-0.043521725
185	0x3f3a9683	0.7288591
186	0x3e20f52e	0.15718529
187	0x3f1e0e83	0.61740893
188	0xbcc8ce44	-0.024512418
189	0x3f65326b	0.89530057
190	0xbacabc20	-0.0015467443
191	0x3f497f01	0.7870942
192	0xbd147bc3	-0.03625084
193	0x3efa7921	0.4892054
194	0x3f3077af	0.6893262
195	0x3adc14a0	0.0016790815
196	0x3f2473d0	0.64239216
197	0x3f0755bc	0.52865195
198	0xbd3e0394	-0.04639013
199	0xbca92377	-0.020646794
200	0x3f1107cb	0.56652516
201	0x3f6082d6	0.8769964
202	0xbcdd02a4	-0.026978798
203	0x3f6cf231	0.92557055
204	0x3f3d2786	0.7388843
205	0x3f55ce7d	0.835182
206	0xbcaf593d	-0.021404857
207	0xbda6c905	-0.0814381
208	0x3a769be8	0.0009407387
209	0x3f0c9f08	0.5493016
210	0x3ef9365a	0.4867428
211	0x3d7b5cb8	0.06136772
212	0x3f549bc3	0.83050174
213	0x3ca2cc85	0.019872913
214	0xbc1e7968	-0.0096725
215	0xbbed514a	-0.0072423564
216	0x3f741444	0.9534342
217	0x3d5c77b4	0.053825095
218	0xbd576b91	-0.052592818
219	0x3f601aff	0.8754119
220	0x3b572784	0.003282995
221	0xbd42ba72	-0.04754109
222	0x3d650df8	0.055921525
223	0xbd939df3	-0.07207861
224	0x3f39169b	0.7230012
225	0xbd352d5d	-0.044232715
226	0x3f411bf8	0.754333
227	0x3cfcdb01	0.030866148
228	0xbc5efcb5	-0.013610055
229	0x3d6879a9	0.05675665
230	0x3f13ed13	0.5778362
231	0xbcda7355	-0.026666323
232	0x3f21959e	0.6311892
233	0x3f08fd05	0.5351108
234	0x3b4d4c29	0.0031325913
235	0xbc901d7e	-0.017592188
236	0x3f6643f7	0.89947456
237	0x3ef5c94a	0.48005134
238	0x3d431a78	0.047632664
239	0x3f363b9a	0.71184695
240	0x3f33a32b	0.7017085
241	0x3f61c0ff	0.88185114
242	0x3cef91e6	0.029244374
243	0x3f0e387d	0.55554944
244	0x3d6e69af	0.058206256
245	0x3b08cf71	0.0020875598
246	0x3ed4ed8c	0.41587484
247	0x3f1bd8e5	0.6087783
248	0xbf20da39	-0.6283298
249	0xbd16dcbb	-0.0368316
250	0x3f3d46d5	0.73936206
251	0x3f1dd03c	0.61645865
252	0x3f0019dc	0.5003946
253	0x3cdcafaf	0.026939241
254	0xbf15b100	-0.58473206
255	0x3f1eed4c	0.62080836

head.3.bias f4 [2]
0	0x400c591a	2.1929383
1	0xc0100c1d	-2.2507393
